HW4/simpleCNN/animals_simpleCNN.pth (torch, 734903 bytes, 18 tensors)

conv1.weight f4 [6, 3, 5, 5]
-0.035131674 -0.07372872 0.078134626 -0.09645987 0.021927238 -0.061225764 -0.03248721 0.07334699
0.07757958 0.06468887 0.052789826 -0.020170327 0.04776056 0.060260147 -0.0034209338 -0.031459205
0.026848694 -0.00042474142 -0.06607003 0.070411846 -0.0040029557 -0.045175232 0.056953907 -0.049578458
-0.10495792 -0.03708353 0.11252196 0.048429772 0.13324785 0.02308269 0.02798214 0.15318449
0.07514236 0.00974074 0.029815897 -0.020339705 0.09790208 0.05765597 0.07896981 0.06134482
0.040734813 0.111573875 0.0040689195 0.024409072 -0.07954307 0.043010846 0.10361738 -0.032084092
0.016245954 0.0053450135 -0.034165263 0.002282377 -0.056628156 -0.019386841 -0.059069328 0.11308661
-0.013665114 0.10852938 0.084809594 0.039169513 0.068496145 0.07615356 0.10315684 -0.03855378
-0.028520962 -0.004588323 0.05854697 0.017193366 -0.0228152 -0.06526198 0.04149203 0.030758392
-0.06707319 -0.012641382 -0.061226048 0.17585516 0.047251057 0.103723764 0.0025102117 -0.0034162677
0.044228032 0.028427292 0.037243918 0.051263988 -0.01787664 0.1450412 -0.033380654 0.02477172
0.019910108 0.052020434 -0.013551449 -0.036533143 -0.15302281 -0.078461744 0.07503682 0.049737018
0.014286885 -0.13702066 0.058489986 0.052088857 -0.0040744506 0.015503214 -0.03030797 0.012377644
0.024316855 0.038110483 -0.16705807 -0.1368643 -0.15870403 -0.09512676 -0.15579976 -0.22507054
-0.13008825 -0.17254 -0.027184522 -0.0013114865 -0.032999273 -0.1427454 -0.14567862 0.013178453
-0.068631105 -0.012337647 -0.018440966 -0.14014706 -0.03189057 0.11488288 0.14042127 0.13986069
-0.07623705 0.048479695 -0.08037518 -0.113879465 -0.03483193 -0.009318998 -0.08291111 0.020743672
-0.16690013 -0.053457342 -0.0012593998 0.098244786 -0.112161756 -0.09070738 -0.022537034 0.08693206
0.072921954 -0.10353456 -0.057016145 -0.12644286 0.044819903 0.12724283 0.09311974 -0.18500233
-0.09118955 0.14064565 -0.1305949 -0.11838191 -0.18304656 0.12242563 -0.040913124 -0.027551584
0.0639689 -0.021465816 -0.09455812 -0.025710559 0.03010982 -0.086813234 0.036287587 -0.08088772
0.12729838 -0.032152474 -0.09373712 -0.08565066 0.0015683187 0.11624619 -0.067776754 0.048287664
0.010064141 0.0013992118 0.12236438 -0.03773509 0.09079036 0.0076660686 0.11598199 0.15839949
0.122241765 0.12964074 0.15574075 0.028322997 0.06397384 0.04143725 -0.039422236 0.07132612
0.0446235 0.037022732 -0.11178766 0.06723702 -0.03527819 0.12322266 0.033184245 0.008972091
0.0595831 0.027302315 -0.13895462 0.09981833 -0.1235875 -0.077353805 -0.07103438 -0.05816178
0.022592206 -0.045713987 0.01773691 0.010491185 -0.0018054858 0.027699288 -0.0168104 0.08987546
-0.0199148 -0.12125627 -0.10748658 -0.10518683 0.079092175 -0.06031037 -0.05818062 -0.042775366
-0.023808256 0.0007229533 0.031975307 0.06901621 0.09949574 0.07419643 0.017348545 0.024287373
-0.037230264 0.20932908 0.16669177 0.022674317 -0.062316436 -0.0318887 0.19237271 0.18255821
0.046677895 0.08861049 0.18354163 0.11555826 0.07211278 0.048506487 0.11903044 0.080919206
0.13996735 0.12953503 -0.21088664 -0.10525244 0.019280393 0.13063526 0.090313144 -0.18639518
00000000: 3be6 0fbd 15ff 96bd 0c05 a03d c18c c5bd
00000010: c0a0 b33c dec7 7abd 4f11 05bd f236 963d
00000020: 0be2 9e3d 997b 843d 253a 583d 3e3c a5bc
00000030: 94a0 433d 58d3 763d bf31 60bb 5edb 00bd
00000040: cbf1 db3c d4af deb9 b94f 87bd 1634 903d
00000050: 3a2b 83bb aa09 39bd 8048 693d c812 4bbd
00000060: 2ef4 d6bd e6e4 17bd ea71 e63d 4c5e 463d
00000070: 2072 083e e917 bd3c cd3a e53c 65dc 1c3e
00000080: 3de4 993d a097 1f3c 7840 f43c 749f a6bc
00000090: e380 c83d ab28 6c3d ecba a13d b544 7b3d
000000a0: 8cd9 263d d880 e43d 9254 853b 89f5 c73c
000000b0: 7ae7 a2bd 242c 303d 5935 d43d 9c6a 03bd
000000c0: 3c16 853c 3925 af3b e0f0 0bbd ef93 153b
000000d0: edf2 67bd 27d1 9ebc aef2 71bd f499 e73d
000000e0: a4e3 5fbc a744 de3d a7b0 ad3d 3670 203d
000000f0: b547 8c3d 66f6 9b3d e543 d33d 92ea 1dbd
00000100: cba4 e9bc a559 96bb f3ce 6f3d 1ad9 8c3c
00000110: f1e6 babc 13a8 85bd 8cf3 293d 06f9 fb3c
00000120: ab5d 89bd cd1d 4fbc 2ac8 7abd 6013 343e
00000130: 538a 413d 206d d43d 5d82 243b 76e3 5fbb
00000140: 7428 353d 5ae0 e83c 148d 183d 30fa 513d
00000150: 0872 92bc ae85 143e 27ba 08bd 10ee ca3c
00000160: 861a a33c 6113 553d e606 5ebc c7a3 15bd
00000170: 03b2 1cbe 8db0 a0bd e7ac 993d 0bb9 4b3d
00000180: 8a13 6a3c 254f 0cbe 3293 6f3d 205b 553d
00000190: f882 85bb 3101 7e3c 6b48 f8bc 9acb 4a3c
000001a0: 2434 c73c bd19 1c3d 4511 2bbe 2826 0cbe
000001b0: 4f83 22be d2d1 c2bd f989 1fbe e478 66be
000001c0: db35 05be 53ae 30be 13b2 debc 2fe6 abba
000001d0: 3f2a 07bd da2b 12be c72c 15be 70ea 573c
000001e0: 778e 8cbd d823 4abc 8211 97bc b682 0fbe
000001f0: b09f 02bd b747 eb3d 98ca 0f3e a437 0f3e
00000200: 2c22 9cbd a592 463d be9b a4bd a339 e9bd
00000210: edab 0ebd b6ae 18bc 4dcd a9bd a2ee a93c
00000220: dee7 2abe 16f6 5abd 7212 a5ba 9034 c93d
00000230: 10b5 e5bd cac4 b9bd 969f b8bc 7009 b23d
00000240: 1b58 953d ed09 d4bd c389 69bd 3d7a 01be
00000250: 1395 373d f24b 023e 90b5 be3d 4071 3dbe
00000260: 96c1 babd 6a05 103e abba 05be 3772 f2bd
00000270: 8f70 3bbe 4aba fa3d 8594 27bd dcb3 e1bc
00000280: 2002 833d 14d9 afbc b0a7 c1bd f39e d2bc
00000290: dfa8 f63c 23cb b1bd 4ba2 143d 76a8 a5bd
000002a0: 825a 023e 50b2 03bd 3ff9 bfbd 9d69 afbd
000002b0: 0b90 cd3a 7c12 ee3d 8ace 8abd 49c9 453d
000002c0: 11e4 243c c265 b73a 2d9a fa3d 1c90 1abd
000002d0: 4cf0 b93d a533 fb3b f787 ed3d 7a33 223e
000002e0: e459 fa3d 8bc0 043e 817a 1f3e a105 e83c
000002f0: b704 833d 1bba 293d 3679 21bd 6e13 923d
00000300: 22c7 363d 26a5 173d eef0 e4bd 90b3 893d
00000310: dd7f 10bd 295c fc3d 34ec 073d adff 123c
00000320: 690d 743d 1ba9 df3c 1f4a 0ebe 8d6d cc3d
00000330: 711b fdbd ac6b 9ebd 797a 91bd 0c3b 6ebd
00000340: 4a13 b93c 973e 3bbd ff4c 913c 38e3 2b3c
00000350: 0da6 ecba 9ee9 e23c f7b5 89bc a010 b83d
00000360: 5d24 a3bc 3555 f8bd ed21 dcbd 316c d7bd
00000370: 14fb a13d 0208 77bd cd4e 6ebd 3935 2fbd
00000380: 8809 c3bc 9384 3d3a 8af8 023d 5f58 8d3d
00000390: 6cc4 cb3d 4cf4 973d 891e 8e3c 50f6 c63c
000003a0: c37e 18bd 5d5a 563e 3fb1 2a3e 7dbf b93c
000003b0: 853f 7fbd ba9d 02bd 5afd 443e 8af0 3a3e
000003c0: 5231 3f3d 6b79 b53d 56f2 3b3e cfa9 ec3d
000003d0: ddaf 933d bdae 463d 3bc6 f33d f8b8 a53d
000003e0: 9a53 0f3e d5a4 043e abf2 57be 978e d7bd
000003f0: eaf1 9d3c 40c5 053e 19f6 b83d 61de 3ebe

conv1.bias f4 [6]
0.26643 -0.19475858 -0.017473131 0.06010473 0.02145941 -0.07111149
00000000: 8369 883e cb6e 47be d023 8fbc 6130 763d
00000010: a5cb af3c e7a2 91bd

conv2.weight f4 [12, 6, 5, 5]
0.029170912 0.034385603 0.06875051 -0.07262598 -0.07122967 -0.029060012 -0.057133187 0.07185735
0.036513306 -0.057936758 0.008457566 -0.017560838 0.041222557 -0.046513528 0.011505032 -0.061448913
-0.014940433 0.056642175 0.04260138 0.06346903 -0.10400746 -0.04721739 -0.04815044 -0.08874625
-0.070777565 0.09000742 0.027589504 -0.058847703 0.0249698 0.031690527 -0.013159123 -0.010409272
-0.032887418 -0.04995312 -0.040590443 0.00994506 -0.003235053 0.08616445 0.012766531 -0.013647429
0.0067509618 -0.0107858805 0.043187167 -0.035862584 -0.009114512 -0.00097640627 -0.03535897 -0.011505598
0.06005859 -0.03402947 -0.047172498 -0.00084830984 0.16329347 0.08805822 0.055332333 0.025577255
0.14886819 0.13130206 0.1099217 -0.0118825305 0.03099846 0.16443308 0.04921565 0.16817205
0.06060741 -0.018040618 0.13609861 0.09949329 0.17756766 0.07052499 0.05210927 0.09933789
0.17456761 0.17523664 0.1633041 -0.080289066 0.07803521 -0.068276815 0.015732732 -0.039842628
-0.00864742 0.07560117 0.02146102 0.011673315 0.010396437 -0.020243797 0.08948156 -0.023824658
0.03867858 -0.0069217333 -0.01867069 -0.060577642 -0.017662052 0.055649776 0.059078686 0.06518415
-0.015425214 0.0010986135 -0.08067197 0.0051552467 0.051249877 0.036467385 0.120526254 0.08047744
-0.009908912 -0.052981034 0.061863616 0.12109173 0.13174245 -0.05464065 0.038902786 -0.030084938
0.113468006 -0.03289462 0.07621114 -0.069381684 0.11735151 0.11053012 0.08085569 0.043056898
-0.05736781 0.069323875 -0.030134968 0.05140906 0.100152016 -0.038071066 -0.024059702 0.020847565
0.06425461 -0.027083905 -0.04738081 -0.06124523 0.08920105 -0.04990984 0.07502192 0.0053197956
0.008819107 -0.019048752 -0.026880857 0.04032984 -0.07938839 -0.062337894 -0.08384713 -0.023001445
0.031068075 0.058384646 -0.017478345 0.061312996 0.030435996 0.051668674 0.009901683 -0.05871608
-0.028512586 0.02872676 -0.040909 0.040472355 -0.05435984 -0.05191846 0.009343543 0.07862932
0.064250655 0.050185516 0.009409657 0.051076967 0.040131457 -0.0026832584 -0.094886705 -0.12278008
0.102381326 0.036873605 -0.053524025 -0.13132171 -0.1219787 0.0805552 0.07876228 -0.1106045
-0.047797527 -0.004230671 0.021640727 0.014324222 -0.019960731 0.052228104 0.074015014 0.012251007
-0.033110585 -0.038060147 0.07961462 0.02144618 0.00371258 0.010730903 -0.024959207 0.13775137
0.034802254 0.10859329 0.01824168 -0.059761453 0.04059376 0.14065619 0.035736203 0.048855286
-0.0522494 -0.048459314 -0.19631355 -0.15178238 -0.110308975 -0.015632365 -0.10596256 -0.08427537
-0.13696942 -0.072437145 0.014349432 -0.08024373 -0.09223807 -0.19158418 -0.0023996625 0.040896863
0.045081303 -0.09748979 -0.08749868 -0.003401607 0.09642863 0.10237785 0.016002059 -0.052834116
0.026291642 -0.11834617 -0.07673531 0.0913745 0.14870475 0.007958915 -0.016385065 -0.13430248
-0.021857204 0.12912725 0.08259988 -0.104746245 -0.24680547 0.10337136 0.072007805 0.09945026
-0.114012286 -0.20179641 -0.020304548 0.06315417 -0.007719406 -0.14453991 -0.2542589 0.110661164
0.12377369 0.09962653 0.06247685 0.08357333 -0.20679258 -0.16695148 0.06513634 0.16650134
00000000: d6f7 ee3c ebd7 0c3d 11cd 8c3d eebc 94bd
00000010: dce0 91bd 430f eebc 7d04 6abd f229 933d
00000020: fa8e 153d 184f 6dbd 9a91 0a3c bfdb 8fbc
00000030: fcd8 283d f884 3ebd 9a7f 3c3c dbb1 7bbd
00000040: b8c8 74bc a001 683d c97e 2e3d 0dfc 813d
00000050: dd01 d5bd 0667 41bd 6539 45bd 98c0 b5bd
00000060: d4f3 90bd cf55 b83d 6203 e23c 4a0a 71bd
00000070: 778d cc3c edcd 013d 5d99 57bc a78b 2abc
00000080: f5b4 06bd a59b 4cbd 2a42 26bd 9bf0 223c
00000090: 2f03 54bb fd76 b03d b62a 513c 7799 5fbc
000000a0: 2c37 dd3b 43b7 30bc 07e5 303d a5e4 12bd
000000b0: 0955 15bc 84f5 7fba 91d4 10bd fa81 3cbc
000000c0: ffff 753d 7c62 0bbd f337 41bd 1c61 5eba
000000d0: 6736 273e de57 b43d 28a4 623d 6487 d13c
000000e0: e770 183e 0c74 063e a11e e13d f2ae 42bc
000000f0: 7bf0 fd3c 2561 283e 5996 493d 4b35 2c3e
00000100: 7a3f 783d ebc9 93bc 6f5d 0b3e 23c3 cb3d
00000110: 4cd4 353e 686f 903d 8870 553d aa71 cb3d
00000120: dac1 323e 3c71 333e 3139 273e 986e a4bd
00000130: edd0 9f3d b7d4 8bbd eee1 803c 0632 23bd
00000140: e9ad 0dbc c9d4 9a3d 05cf af3c 6f41 3f3c
00000150: d155 2a3c 52d6 a5bc 1c42 b73d ee2b c3bc
00000160: 6e6d 1e3d b5cf e2bb 46f3 98bc 4320 78bd
00000170: 02b0 90bc 05f1 633d 7efc 713d 457f 853d
00000180: 09ba 7cbc 5aff 8f3a 5937 a5bd 58ed a83b
00000190: 64eb 513d d35e 153d 78d6 f63d 5bd1 a43d
000001a0: fd58 22bc a402 59bd b464 7d3d f1fe f73d
000001b0: 7ee7 063e e0ce 5fbd 8758 1f3d b074 f6bc
000001c0: ea61 e83d 82bc 06bd 9614 9c3d fc17 8ebd
000001d0: fd55 f03d 9e5d e23d ab97 a53d 6e5c 303d
000001e0: 82fa 6abd adf9 8d3d 9cdd f6bc 4e92 523d
000001f0: 801c cd3d 68f0 1bbd da18 c5bc 83c8 aa3c
00000200: ec97 833d 11df ddbc 6112 42bd 47dc 7abd
00000210: 0aaf b63d 436e 4cbd 18a5 993d ae51 ae3b
00000220: 047e 103c 210c 9cbc 3e35 dcbc e730 253d
00000230: 6196 a2bd 0556 7fbd 0bb8 abbd 876d bcbc
00000240: 7a82 fe3c bd24 6f3d bf2e 8fbc 5623 7b3d
00000250: e954 f93c 88a2 533d ab3a 223c 4680 70bd
00000260: 3a93 e9bc 6254 eb3c 3290 27bd 57c6 253d
00000270: 6ca8 5ebd 73a8 54bd a915 193c 6908 a13d
00000280: d995 833d 548f 4d3d f62a 1a3c 1536 513d
00000290: e260 243d 9bd9 2fbb f653 c2bd 1f74 fbbd
000002a0: 4dad d13d c708 173d 023c 5bbd 3379 06be
000002b0: f8cf f9bd 20fa a43d 1e4e a13d 9d84 e2bd
000002c0: 57c7 43bd 71a1 8abb e547 b13c 24b0 6a3c
000002d0: b084 a3bc 23ed 553d 2f95 973d 73b8 483c
000002e0: f79e 07bd f5e4 1bbd fd0c a33d e6af af3c
000002f0: c24e 733b abd0 2f3c 4077 ccbc b20e 0d3e
00000300: cf8c 0e3d 2966 de3d 936f 953c 6dc8 74bd
00000310: a445 263d 2d08 103e 2060 123d 7b1c 483d
00000320: 7803 56bd 467d 46bd 6b06 49be d76c 1bbe
00000330: ace9 e1bd 720f 80bc e602 d9bd 9198 acbd
00000340: b641 0cbe ed59 94bd e119 6b3c d356 a4bd
00000350: 50e7 bcbd a52e 44be a843 1dbb 7883 273d
00000360: 2ca7 383d baa8 c7bd 8232 b3bd 7fed 5ebb
00000370: 607c c53d 7aab d13d c016 833c 9668 58bd
00000380: 9261 d73c 7a5f f2bd 6727 9dbd 8e22 bb3d
00000390: 0f46 183e 1c66 023c f939 86bc 9786 09be
000003a0: e10d b3bc ef39 043e 202a a93d 3385 d6bd
000003b0: 93ba 7cbe 5db4 d33d d478 933d 94ac cb3d
000003c0: 467f e9bd b8a3 4ebe b955 a6bc f956 813d
000003d0: 12f3 fcbb 4502 14be 392e 82be 52a2 e23d
000003e0: 0f7d fd3d ff08 cc3d bae7 7f3d 7e28 ab3d
000003f0: 6fc1 53be 54f5 2abe 3466 853d 547f 2a3e

conv2.bias f4 [12]
-0.022428324 0.015310747 0.090575956 0.15600404 -0.10362182 -0.046091814 0.09292801 0.16814058
-0.07669277 -0.11146225 0.062001225 0.030405916
00000000: 9bbb b7bc edd9 7a3c e37f b93d 86bf 1f3e
00000010: ad37 d4bd c5ca 3cbd 0a51 be3d 0b2d 2c3e
00000020: 1911 9dbd 5246 e4bd fff4 7d3d d415 f93c

conv3.weight f4 [16, 12, 4, 4]
0.08270259 0.035308033 0.091819175 0.06652174 -0.018126551 0.03360066 0.112709746 0.1260781
0.09604263 0.1259405 0.11739077 0.037369743 0.03232257 0.053820383 0.040505826 0.018301008
0.016059855 0.07798641 0.07027153 -0.072552994 0.03298107 0.05022307 -0.052288312 0.019901516
0.069718175 -0.0026210377 0.0013649075 0.027867487 -0.03475377 -0.001095794 -0.06618885 -0.016971573
-0.0663039 0.024493758 0.027056066 -0.047103915 -0.059356727 0.017863391 -0.02718808 0.011879851
0.0074682324 -0.033878896 -0.06286703 -0.051120006 0.0051173237 -0.0641439 0.029645573 -0.07420855
-0.02474338 -0.007911445 0.06512382 0.042617958 -0.032500144 0.084983155 0.015170394 -0.0040180455
-0.0061621647 0.041795727 0.010593895 0.0073839696 0.049083386 0.03809913 0.024212785 0.053533256
0.0060112868 0.002246515 -0.018618284 -0.03510145 0.046936914 0.026023641 0.0072965594 0.056434624
0.069278695 0.07508222 0.0471977 -0.030908892 0.07787874 0.08305715 0.09907825 0.05186202
-0.0777923 -0.04804701 0.0047949357 -0.07580422 -0.03924535 0.005733778 -0.01618139 -0.07144964
-0.0181964 0.0061238646 -0.017915925 -0.08827837 0.011284643 -0.013681279 -0.07308735 -0.055348374
-0.087313496 -0.017301919 0.004182973 -0.053126145 -0.049527943 -0.09343711 0.010887224 0.047770515
-0.14381027 -0.09825264 0.0046210415 -0.08926092 -0.1297722 -0.08670069 -0.042596526 0.011111258
-0.013002994 -0.096750796 -0.14327511 -0.09257208 -0.11313314 -0.033195738 -0.12784994 -0.0915922
-0.08767097 -0.062592775 -0.14319868 -0.07465264 -0.14750938 -0.07561294 -0.03096148 -0.08226544
-0.028454503 0.04973848 -0.03288644 0.009723653 -0.014533322 0.0069314986 0.012605758 0.08263518
0.024684532 -0.0476867 0.0015578298 0.019836016 -0.065287575 0.011396531 -0.0478695 -0.058702275
0.044769786 0.074757 0.042587213 0.0027418612 0.010167986 0.09768384 -0.053244356 0.24410671
0.11831904 0.01822083 0.15540981 0.22676606 0.106385574 0.084685706 0.15063234 0.1563596
0.03840796 -0.00827118 -0.022839436 0.026524508 0.0048127626 0.033261057 0.024604635 -0.048159905
-0.0025647685 -0.032595817 -0.0027751066 -0.03882525 0.06344552 -0.06584779 0.018514076 0.019825928
-0.012259498 -0.006025483 -0.014937274 0.07753104 -0.003404275 0.019178687 0.09355431 0.069924854
-0.00416317 -0.00469326 -0.020766703 0.05432359 0.01564943 0.03776769 0.026791995 -0.005577547
-0.0026918324 -0.0006839001 0.0169822 0.050540883 -0.012850725 -0.05354445 0.05160917 0.09826729
0.021746645 -0.07967392 -0.056086823 -0.008759961 -0.05528596 -0.06078152 0.032790415 -0.070297904
-0.025579803 -0.006924461 -0.00071547896 0.034597967 0.054056417 0.101881325 -0.029145574 0.022098994
0.047114015 0.07912869 0.087103084 -0.06760765 0.06735672 0.108019315 0.08907149 -0.016492411
0.09692609 -0.00059674354 0.0032014197 -0.06213827 -0.004812106 -0.009102362 0.0044819354 -0.070862
0.037925284 0.042171624 -0.043362483 -0.11787706 0.014810278 0.10160283 -0.08470749 -0.07906168
-0.068906315 -0.11861348 0.01009803 -0.07307962 -0.03724053 -0.05885957 -0.017329888 0.071724206
-0.06891013 0.06531568 0.0374416 0.10681474 0.0044346196 -7.097119e-05 0.09923116 0.03436963
00000000: fa5f a93d 289f 103d b10b bc3d 8d3c 883d
00000010: 227e 94bc d8a0 093d 5ed4 e63d 9e1a 013e
00000020: 00b2 c43d 8cf6 003e 926a f03d 0411 193d
00000030: ac64 043d c372 5c3d 70e9 253d ffeb 953c
00000040: f58f 833c 57b7 9f3d 85ea 8f3d aa96 94bd
00000050: 2917 073d b5b6 4d3d 452c 56bd 8108 a33c
00000060: 67c8 8e3d b7c5 2bbb b2e6 b23a 5b4a e43c
00000070: f859 0ebd bfa0 8fba 058e 87bd f807 8bbc
00000080: 57ca 87bd 22a7 c83c afa4 dd3c 09f0 40bd
00000090: 0a20 73bd 3f56 923c 89b9 debc b5a3 423c
000000a0: 13b8 f43b 99c4 0abd 6ec0 80bd 3663 51bd
000000b0: 39af a73b e15d 83bd 46db f23c a7fa 97bd
000000c0: a1b2 cabc 019f 01bc a35f 853d 2b90 2e3d
000000d0: df1e 05bd a60b ae3d 3f8d 783c cfa9 83bb
000000e0: fceb c9bb ff31 2b3d 0492 2d3c 3af5 f13b
000000f0: a90b 493d d50d 1c3d e459 c63c b045 5b3d
00000100: 54fa c43b 443a 133b 5f85 98bc 8ac6 0fbd
00000110: ec40 403d 882f d53c fa17 ef3b fe27 673d
00000120: fde1 8d3d b5c4 993d 6052 413d a534 fdbc
00000130: e47e 9f3d de19 aa3d 8ae9 ca3d 456d 543d
00000140: 9251 9fbd f1cc 44bd d61e 9d3b 3e3f 9bbd
00000150: bbbf 20bd 6ae2 bb3b d68e 84bc 3054 92bd
00000160: 9e10 95bc b3aa c83b 6bc4 92bc 4acb b4bd
00000170: 39e3 383c 7127 60bc d2ae 95bd fab4 62bd
00000180: 6bd1 b2bd c1bc 8dbc 5211 893b cd9a 59bd
00000190: d0dd 4abd f55b bfbd 5460 323c 04ab 433d
000001a0: 0043 13be ae38 c9bd 1b6c 973b 6ece b6bd
000001b0: 01e3 04be 2290 b1bd b279 2ebd fe0b 363c
000001c0: 820a 55bc 4825 c6bd b6b6 12be 6e96 bdbd
000001d0: 59b2 e7bd 41f8 07bd 18eb 02be b194 bbbd
000001e0: d68c b3bd a430 80bd ada2 12be 7ce3 98bd
000001f0: b30c 17be f5da 9abd eea2 fdbc c87a a8bd
00000200: 6b19 e9bc 94ba 4b3d efb3 06bd f54f 1f3c
00000210: 2c1d 6ebc a021 e33b 6288 4e3c a23c a93d
00000220: 3737 ca3c 2153 43bd 1830 cc3a 247f a23c
00000230: 7eb5 85bd 84b8 3a3c cf12 44bd cc71 70bd
00000240: 8660 373d 331a 993d ee6f 2e3d ccb0 333b
00000250: a097 263c 770e c83d c116 5abd 1cf7 793e
00000260: 4151 f23d da43 953c c023 1f3e 5d35 683e
00000270: aee0 d93d b36f ad3d 5d3f 1a3e bb1c 203e
00000280: aa51 1d3d d883 07bc c519 bbbc ed49 d93c
00000290: 61b4 9d3b bf3c 083d a98f c93c 5243 45bd
000002a0: ad15 28bb 3183 05bd 90de 35bb 3a07 1fbd
000002b0: baef 813d 35db 86bd d5aa 973c fc69 a23c
000002c0: 10dc 48bc 6a71 c5bb 78bb 74bc 98c8 9e3d
000002d0: 421a 5fbb 9f1c 9d3c 6799 bf3d c334 8f3d
000002e0: 336b 88bb ebc9 99bb ef1e aabc 6a82 5e3d
000002f0: 3c33 803c 4bb2 1a3d e37a db3c dbc3 b6bb
00000300: 7469 30bb c247 33ba 411e 8b3c f503 4f3d
00000310: d98b 52bc 6d51 5bbd 2364 533d 5c40 c93d
00000320: 0526 b23c 152c a3bd 4cbb 65bd f185 0fbc
00000330: 8873 62bd 0bf6 78bd 3e4f 063d 59f8 8fbd
00000340: bc8c d1bc 97e6 e2bb fb8e 3bba 99b6 0d3d
00000350: 436a 5d3d 28a7 d03d b3c2 eebc f308 b53c
00000360: a0fa 403d 390e a23d 1a63 b23d e175 8abd
00000370: 52f2 893d 3b39 dd3d 1d6b b63d 181b 87bc
00000380: 3081 c63d c86e 1cba e9ce 513b b384 7ebd
00000390: dfae 9dbb 1322 15bc 33dd 923b 1920 91bd
000003a0: 8b57 1b3d 27bc 2c3d dc9c 31bd 8769 f1bd
000003b0: cfa6 723c 2515 d03d 1f7b adbd 17eb a1bd
000003c0: c11e 8dbd a0eb f2bd 3572 253c c5aa 95bd
000003d0: 8789 18bd bc16 71bd 69f7 8dbc 24e4 923d
000003e0: c120 8dbd 3ac4 853d 5d5c 193d b0c1 da3d
000003f0: 4950 913b 5ed6 94b8 b539 cb3d 2bc7 0c3d

conv3.bias f4 [16]
-0.0042877025 -0.054506935 0.058523208 -0.065573715 0.05743377 -0.035665274 -0.058346204 0.13132046
0.14172283 0.13034555 -0.086481266 -0.23689936 0.09897311 -0.09667935 0.104986385 0.04133809
00000000: db7f 8cbb aa42 5fbd 08b6 6f3d 834b 86bd
00000010: ac3f 6b3d c015 12bd 6efc 6ebd df78 063e
00000020: ca1f 113e 4e79 053e 171d b1bd bf95 72be
00000030: 6ab2 ca3d d3ff c5bd 1a03 d73d 2152 293d

conv4.weight f4 [20, 16, 4, 4]
0.040272087 0.09363374 0.026090382 0.06754188 0.032370828 0.08582177 0.039815277 -0.017840214
0.067286976 0.020628177 -0.019828355 0.012593159 0.015251557 0.055390324 0.04799023 0.033964124
-0.011636427 -0.059817594 0.01609442 -0.082927994 -0.14675394 -0.25470293 -0.17046404 -0.038446024
-0.15405592 -0.29191634 -0.25718814 -0.09756994 -0.22169815 -0.12922566 -0.054574702 -0.05389884
-0.10106076 -0.101808526 -0.058876865 -0.24488121 -0.013480715 -0.09629889 -0.048657052 -0.094787404
0.031085713 -0.11372902 -0.11210715 -0.21526517 -0.14926018 -0.09146582 -0.15469082 -0.16745941
0.00641903 -0.048602443 0.016848605 0.036453635 0.013790043 0.005542842 -0.03179926 -0.04127126
-0.036801476 0.04645651 -0.05390219 0.014107634 -0.014562575 -0.025620025 0.004626254 0.05056902
-0.08054228 -0.107907996 -0.081206106 -0.036001723 -0.046816994 -0.038465675 0.0076417224 0.0071763964
-0.079261884 -0.06461379 -0.15621708 -0.11469591 0.039999656 -0.15751755 -0.15882204 -0.223062
-0.010910519 0.09395429 0.10401185 0.050386116 0.019500177 0.02965242 -0.021023687 0.02578249
0.0017962345 -0.08134388 -0.12112893 -0.060686402 -0.07720643 -0.072005525 -0.039296657 -0.031320684
0.048745334 0.045063686 -0.0031259286 0.078503646 0.0077339616 0.0057560205 -0.00524386 -0.046763327
0.024268575 0.009029649 -0.050225012 0.058235023 0.012444668 -0.057065707 0.021037376 0.05561304
-0.017556805 0.024513358 0.080765165 0.07096417 -0.12107454 -0.059669785 0.03563648 -0.013839572
-0.046421416 -0.06518931 -0.03200482 -0.0035267826 0.01069771 -0.06870986 0.042054724 0.048918165
-0.0639058 -0.048816245 0.030825052 -0.05042452 -0.008748226 0.019305663 0.050982013 0.009275664
0.011207198 -0.0061052307 -0.073840745 -0.0044748206 -0.006998128 -0.01560737 -0.00013984634 -0.09132954
0.05524576 -0.0134314345 0.023860868 -0.045155205 0.028730195 0.082678065 -0.012926842 0.015827559
-0.06644224 -0.007459268 0.074475594 0.074565694 -0.039996617 0.07652496 0.024315484 -0.009944277
0.025726551 0.0065644695 0.035278656 0.00351562 -0.0024410791 0.0069311005 0.043483783 -0.050169967
0.004220993 -0.047113143 0.045749 -0.06909238 0.027080445 0.051720534 -0.003120031 0.03214701
0.06912957 0.0070285117 0.08734446 0.015754238 0.05692869 0.03260388 0.02227871 0.048695464
0.023099527 0.005058937 0.06638339 -0.012507918 0.056079295 -0.0117202755 0.020116078 0.03626261
-0.06679952 -0.021742757 -0.013854422 -0.009254192 0.07555566 0.105165295 0.08061985 0.011760475
0.050732218 0.02493784 -0.035965964 -0.049984116 0.017405398 -0.03907272 -0.15930702 -0.118951984
-0.030110572 -0.029886836 -0.07850846 -0.07184557 0.029696252 -0.11035985 -0.13489546 -0.13139305
0.000427461 -0.06007675 -0.158621 -0.2185625 -0.048783604 -0.11959127 -0.16400707 -0.14277117
0.04620584 -0.02399001 0.012678752 0.08801557 0.00053550134 -0.023851808 0.040268507 -0.009994696
0.014051171 -0.09402215 -0.16770339 0.011829658 -0.053433504 -0.2611386 -0.22163567 -0.17600481
-0.03557757 0.043109745 0.034109227 0.07653785 -0.03963468 0.08236657 0.014797015 0.03197199
0.034095895 0.05415988 -0.001961749 0.08161739 0.05962953 0.05484599 0.052759375 0.08067837
00000000: 58f4 243d 0cc3 bf3d 7fbb d53c 6653 8a3d
00000010: 4697 043d 53c3 af3d 5815 233d a425 92bc
00000020: c1cd 893d 6cfc a83c 136f a2bc 8a53 4e3c
00000030: abe1 793c f7e0 623d 6791 443d f71d 0b3d
00000040: b6a6 3ebc 4b03 75bd 72d8 833c 27d6 a9bd
00000050: aa46 16be 6c68 82be 208e 2ebe 9479 1dbd
00000060: d6c0 1dbe 0f76 95be 2aae 83be c0d2 c7bd
00000070: d704 63be bb53 04be b989 5fbd 08c5 5cbd
00000080: f2f8 cebd fd80 d0bd de28 71bd 24c2 7abe
00000090: 38de 5cbc 5a38 c5bd 9e4c 47bd e61f c2bd
000000a0: 77a7 fe3c c3ea e8bd 6f98 e5bd 796e 5cbe
000000b0: a9d7 18be 6f52 bbbd 4567 1ebe 7b7a 2bbe
000000c0: ba56 d23b 5b13 47bd 1606 8a3c 6850 153d
000000d0: a2ef 613c bba0 b53b f13f 02bd 0d0c 29bd
000000e0: 25bd 16bd 2e49 3e3d 8bc8 5cbd b523 673c
000000f0: de97 6ebc 16e1 d1bc d597 973b 7621 4f3d
00000100: 5af3 a4bd defe dcbd 634f a6bd 8b76 13bd
00000110: 2dc3 3fbd 2f8e 1dbd 6a67 fa3b fa27 eb3b
00000120: 0e54 a2bd 3c54 84bd 5ff7 1fbe b0e5 eabd
00000130: aed6 233d 484c 21be 3fa2 22be 5d6a 64be
00000140: 09c2 32bc 1b6b c03d 2a04 d53d ac61 4e3d
00000150: d6be 9f3c a2e9 f23c de39 acbc cd35 d33c
00000160: a16f eb3a 9f97 a6bd 7212 f8bd 4e92 78bd
00000170: 681e 9ebd a277 93bd 88f5 20bd 1e4a 00bd
00000180: 30a9 473d b394 383d 61dc 4cbb 85c6 a03d
00000190: 2c6d fd3b 009d bc3b b0d4 abbb e78a 3fbd
000001a0: e4ce c63c 18f1 133c beb8 4dbd d987 6e3d
000001b0: b9e4 4b3c bbbd 69bd 9356 ac3c 80ca 633d
000001c0: 4ad3 8fbc 3dd0 c83c 3568 a53d aa55 913d
000001d0: eef5 f7bd 4e68 74bd 8ff7 113d 5fbf 62bc
000001e0: 6224 3ebd f981 85bd 7c17 03bd 9821 67bb
000001f0: 7345 2f3c c1b7 8cbd 9341 2c3d 6a5e 483d
00000200: 0be1 82bd 8bf3 47bd d284 fc3c f189 4ebd
00000210: b854 0fbc e926 9e3c 84d2 503d f4f8 173c
00000220: 659e 373c 630e c8bb d139 97bd 84a1 92bb
00000230: 8d50 e5bb 0eb6 7fbc b7a3 12b9 fb0a bbbd
00000240: 6149 623d 850f 5cbc de77 c33c aaf4 38bd
00000250: 965b eb3c 1e53 a93d 1bcb 53bc cca8 813c
00000260: de12 88bd e06c f4bb a986 983d e6b5 983d
00000270: 7ed3 23bd 1eb9 9c3d 4431 c73c 52ed 22bc
00000280: 7dc0 d23c c31a d73b 5a80 103d 5166 663b
00000290: 83fa 1fbb 491e e33b 0d1c 323d 067f 4dbd
000002a0: 4150 8a3b b6f9 40bd 4e63 3b3d 4e80 8dbd
000002b0: cfd7 dd3c e9d8 533d 6f79 4cbb 95ac 033d
000002c0: ce93 8d3d 6e4f e63b a7e1 b23d 080f 813c
000002d0: 0f2e 693d a58b 053d d781 b63c e574 473d
000002e0: 383b bd3c 70c5 a53b 04f4 873d 03ee 4cbc
000002f0: 67b3 653d 6606 40bc 79ca a43c 1a88 143d
00000300: 30ce 88bd de1d b2bc a8fd 62bc e59e 17bc
00000310: edbc 9a3d e760 d73d 051c a53d 02af 403c
00000320: 96cc 4f3d 714a cc3c 0c51 13bd 25bc 4cbd
00000330: c495 8e3c b70a 20bd 6121 23be 199d f3bd
00000340: 72aa f6bc 3dd5 f4bc 0bc9 a0bd c523 93bd
00000350: 8e45 f33c 5804 e2bd 0922 0abe e68b 06be
00000360: d81c e039 0a13 76bd 8b6d 22be d9ce 5fbe
00000370: 51d1 47bd 45ec f4bd 78f1 27be 9b32 12be
00000380: 5642 3d3d b386 c4bc 8aba 4f3c 8241 b43d
00000390: e360 0c3a de64 c3bc 97f0 243d cbc0 23bc
000003a0: e236 663c af8e c0bd 70ba 2bbe 2fd1 413c
000003b0: 17dd 5abd f5b3 85be 76f4 62be 9b3a 34be
000003c0: c9b9 11bd d893 303d 1eb6 0b3d e0bf 9c3d
000003d0: f957 22bd ceaf a83d 2e6f 723c 10f5 023d
000003e0: 23a8 0b3d c0d6 5d3d b090 00bb 0527 a73d
000003f0: 183e 743d 30a6 603d 371a 583d b43a a53d

conv4.bias f4 [20]
-0.006719646 0.013257402 0.192913 0.20109268 -0.14557481 -0.11204299 -0.005456801 0.0030005178
-0.023176696 -0.051823117 0.21719597 -0.033693273 0.07793276 0.01657297 0.057497323 -0.107753076
0.08211006 0.14127326 -0.11624569 -0.0596961
00000000: 7a30 dcbb 9335 593c fc8a 453e 3deb 4d3e
00000010: 9011 15be cc76 e5bd f7ce b2bb 56a4 443b
00000020: 0edd bdbc 7a44 54bd 9f68 5e3e f501 0abd
00000030: 369b 9f3d 0ac4 873c 5082 6b3d a5ad dcbd
00000040: 5229 a83d f0a9 103e 3812 eebd e683 74bd

fc1.weight f4 [256, 500]
-0.04803645 0.015909253 -0.05166269 -0.011113771 -0.018620722 0.01393069 0.027617441 0.00868178
-0.010000152 -0.045412987 -0.029533291 -0.0064868126 0.020184763 -0.052077174 -0.027442608 -0.036667157
-0.0094542755 -0.0074856034 -0.033259362 -0.05386282 -0.040468976 0.0020728533 -0.023495937 -0.00800198
-0.047606956 0.0019519856 -0.044381402 0.00023544086 -0.029056415 -0.052503362 -0.048769042 0.012120114
-0.011301665 0.0016103507 -0.04503581 -0.022280373 -0.019394513 -0.05335648 0.004232633 -0.010841426
-0.029185295 -0.015306678 -0.042743247 0.007975198 -0.014839956 -0.02620347 -0.033279486 -0.019045774
-0.02937473 -0.009489652 -0.025853522 -0.010495509 -0.043857478 -0.012928379 0.030289626 -0.010273221
0.0018416677 -0.03391679 0.030315597 -0.05612164 -0.04465031 -0.031842045 -0.009449199 -0.007932727
-0.055452313 0.016863443 -0.020077301 -0.009076688 -0.017709376 -0.043328356 -0.048250526 0.0045885947
0.015630942 0.0122994445 -0.03158781 -0.04352419 0.035964474 -0.00062085513 0.027906822 -0.01984573
0.0056850645 0.0069821407 -0.028011737 -0.03448691 0.020300513 0.024903553 0.02229074 -0.017788155
-0.042891208 -0.04456947 -0.04013298 -0.009759381 -0.022160491 -0.026242545 -0.00018730621 -0.046030525
0.034406733 0.01618728 -0.011766361 0.010470329 -0.004672607 -0.037017215 -0.0006597055 -0.045711983
-0.019391144 -0.014942852 -0.009510385 -0.030135358 0.014442521 0.020002691 0.021165058 0.02828024
-0.024181781 -0.024537591 0.000673325 -0.04302987 -0.0498539 0.01665008 -0.02036529 -0.04163373
0.023275224 -0.007401822 -0.040216167 0.0230514 0.016357271 0.023425777 -0.031455092 -0.048046175
-0.010391469 -0.009629013 -0.009116871 -0.0013141376 -0.03371654 -0.063806064 -0.014552812 -0.0012962446
-0.001483575 -0.052477706 0.012837749 -0.014275659 0.037234608 0.03374262 -0.03533732 0.0062052137
-0.059354074 -0.0018067005 -0.024770524 0.0011298767 0.0041223643 0.02139618 -0.036864694 -0.035455298
-0.018417303 0.014208235 -0.017760923 -0.0127924755 -0.010274513 0.006276497 -0.044782028 0.016586306
-0.048195258 0.013203521 -0.022120038 -0.02725977 -0.0010650659 -0.026001206 -0.032457415 0.0037612203
-0.0381082 -0.023027852 0.02528907 -0.06227441 0.014261043 0.021279458 -0.028233634 0.0060204268
-0.022723744 0.026783254 -0.0027356583 -0.024395088 0.033606812 0.004595905 -0.04633862 -0.004888032
-0.057507444 0.01542973 -0.0426293 0.03528876 -0.037598692 0.010310184 -0.01657366 -0.04989451
0.019706134 -0.036641695 -0.046431374 0.020226799 0.017459366 -0.013491422 -0.00713873 -0.0048604696
0.0013505562 0.02084963 -0.026303932 0.0009992454 0.03206049 -0.006396249 -0.01891699 0.01157582
-0.041099086 -0.03516413 -0.0039965413 0.0059211985 -0.012037986 -0.025061652 -0.041006923 0.0061892834
-0.02408539 0.037232663 -0.022291387 -0.01859978 0.0345407 -0.005952286 0.013755598 -0.010224276
0.02043932 0.001972249 0.020903548 0.018885102 -0.04388232 -0.018562187 -0.04384301 0.012687463
-0.042829324 0.005348651 0.008821488 0.029834472 -0.046954677 0.0006897573 -0.03299969 0.01197567
-0.0138621405 0.0033238262 0.013466948 -0.037873343 -0.011303428 -0.042280763 0.010793731 0.024920383
-0.05941707 0.02499598 -0.006539911 0.025446922 -0.031314082 -0.058006145 0.00095716084 -0.03563572
00000000: dec1 44bd 1f54 823c 429c 53bd 8916 36bc
00000010: 7c8a 98bc 8c3d 643c f93d e23c 063e 0e3c
00000020: add7 23bc f802 3abd cdef f1bc 548f d4bb
00000030: 845a a53c e04e 55bd 52cf e0bc 4d30 16bd
00000040: 1be6 1abc cb49 f5bb f83a 08bd 439f 5cbd
00000050: ccc2 25bd b5d8 073b 8d7a c0bc bd1a 03bc
00000060: 83ff 42bd c5d9 ff3a 46c9 35bd ade0 7639
00000070: b807 eebc c40d 57bd 0cc2 47bd 7193 463c
00000080: 9e2a 39bc 6712 d33a 7877 38bd 5485 b6bc
00000090: 3ee1 9ebc 538c 5abd e6b1 8a3b 3da0 31bc
000000a0: 0016 efbc dcc8 7abc 8b13 2fbd 68aa 023c
000000b0: 4923 73bc a9a8 d6bc 1250 08bd e205 9cbc
000000c0: 46a3 f0bc 7c7a 1bbc c4ca d3bc 5bf5 2bbc
000000d0: e6a3 33bd 8dd1 53bc f321 f83c 0351 28bc
000000e0: 1d64 f13a 55ec 0abd 6a58 f83c cedf 65bd
000000f0: 3ee3 36bd ce6c 02bd d0d0 1abc 45f8 01bc
00000100: f721 63bd 3425 8a3c 2779 a4bc 64b6 14bc
00000110: 4113 91bc 1379 31bd 58a2 45bd ec5b 963b
00000120: 760c 803c 9c83 493c 3862 01bd 6c46 32bd
00000130: 7c4f 133d e2c0 22ba d99c e43c 8393 a2bc
00000140: c749 ba3b 71ca e43b df78 e5bc 2542 0dbd
00000150: 434d a63c 8902 cc3c 129b b63c 77b8 91bc
00000160: b1ae 2fbd 7a8e 36bd 7b62 24bd d0e5 1fbc
00000170: eb89 b5bc 9bfa d6bc a167 44b9 818a 3cbd
00000180: 13ee 0c3d 309b 843c b2c7 40bc be8b 2b3c
00000190: ab1c 99bb 5d9f 17bd 16f0 2cba 7d3c 3bbd
000001a0: 2dda 9ebc ddd2 74bc 72d1 1bbc 6dde f6bc
000001b0: 53a0 6c3c afdc a33c 5862 ad3c f6ab e73c
000001c0: df18 c6bc 0f03 c9bc 1382 303a 1740 30bd
000001d0: 9a33 4cbd c065 883c 1cd5 a6bc 2188 2abd
000001e0: afab be3c fc8a f2bb b5b9 24bd 4ad6 bc3c
000001f0: afff 853c 6ae7 bf3c 0ed7 00bd 11cc 44bd
00000200: fb40 2abc 02c3 1dbc ee5e 15bc 243f acba
00000210: 5b1a 0abd c1ac 82bd eb6e 6ebc c0e6 a9ba
00000220: 8474 c2ba ddf2 56bd 6c55 523c 74e4 69bc
00000230: 5183 183d b435 0a3d debd 10bd 1b55 cb3b
00000240: 421d 73bd cfce ecba 8eeb cabc 5f18 943a
00000250: e614 873b 0b47 af3c 6fff 16bd 9339 11bd
00000260: e2df 96bc a8c9 683c 5b7f 91bc 8897 51bc
00000270: 6e56 28bc 13ab cd3b 5c6d 37bd 01e0 873c
00000280: 6468 45bd 9553 583c 1535 b5bc e24f dfbc
00000290: ae99 8bba 7b00 d5bc 11f2 04bd ce7e 763b
000002a0: 5817 1cbd e8a4 bcbc 062b cf3c 7413 7fbd
000002b0: 26a7 693c 4252 ae3c 394a e7bc 0047 c53b
000002c0: 2527 babc 8e68 db3c bb48 33bb 35d8 c7bc
000002d0: 4ca7 093d 3f99 963b 91cd 3dbd c92b a0bb
000002e0: ed8c 6bbd facc 7c3c 109c 2ebd f28a 103d
000002f0: 1601 1abd 0cec 283c 7cc5 87bc 305e 4cbd
00000300: c26e a13c 9a15 16bd d32e 3ebd acb2 a53c
00000310: f206 8f3c 200b 5dbc 02ec e9bb 9344 9fbb
00000320: 2505 b13a d8cc aa3c 587b d7bc 1df9 823a
00000330: dc51 033d a097 d1bb cef7 9abc 82a8 3d3c
00000340: 8457 28bd 4308 10bd 6bf5 82bb 9d06 c23b
00000350: f93a 45bc 184e cdbc e0f6 27bd 79cf ca3b
00000360: b94e c5bc 4781 183d 6d9c b6bc 915e 98bc
00000370: 8d7a 0d3d 650b c3bb 295f 613c b983 27bc
00000380: 5c70 a73c d940 013b eb3d ab3c eeb4 9a3c
00000390: f3bd 33bd ba0f 98bc ba94 33bd 14df 4f3c
000003a0: cd6d 2fbd bd43 af3b 0188 103c 6c67 f43c
000003b0: 8c53 40bd d4d0 343a af2a 07bd 9a35 443c
000003c0: 081e 63bc 8dd4 593b 79a4 5c3c 1421 1bbd
000003d0: 0332 39bc 982e 2dbd 30d8 303c d525 cc3c
000003e0: 505f 73bd 5fc4 cc3c c04c d6bb 1076 d03c
000003f0: 3243 00bd da97 6dbd fae9 7a3a c3f6 11bd

fc1.bias f4 [256]
0.0030684364 -0.04774079 0.10007007 -0.08903729 -0.03870711 0.10173019 -0.043035474 0.13764311
0.0147302635 0.05394176 -0.020185152 0.06770531 -0.018086603 0.035410143 -0.018998774 -0.074552625
-0.022924744 0.2332911 -0.034868445 -0.025102569 0.011429096 0.10349208 0.081505634 -0.040505845
-0.038627397 -0.04074862 -0.05761766 -0.039618175 0.07251882 -0.00085483416 -0.022304598 0.025580639
0.1688356 -0.26896986 -0.002332504 -0.013972631 -0.03787889 0.12099124 0.06992719 0.22823675
-0.055628248 -0.008902487 -0.034225013 0.12112937 0.054402243 -0.041427907 -0.037625823 -0.02341671
0.1933416 0.016570855 0.08989583 0.033606667 0.08013089 -0.033733968 0.063881926 -0.057945497
0.035453036 -0.0500166 -0.022962652 0.18498094 0.05515544 -0.048237287 -0.051037673 -0.04093058
0.13065735 0.008409214 -0.06860976 0.029377367 0.20096655 0.07673744 0.01135635 0.07524478
0.11356653 0.02088204 -0.038538646 -0.06643287 -0.046197683 0.14314495 0.0076653752 0.02868561
-0.04497331 -0.004502191 0.041944962 -0.005016137 0.029153336 0.017426113 -0.030915827 0.07453436
0.12390989 0.01966707 0.03275535 -0.003303113 0.12631002 0.081637025 0.032495894 -0.032433547
0.025090147 0.07741789 -0.039618824 0.040499847 0.037660353 0.015867751 -0.015552582 -0.03207007
0.013826788 0.064183466 -0.055519573 0.010507597 -0.041070756 0.052626107 -0.07610223 0.007810994
-0.007230076 -0.021106955 -0.046843868 -0.026335701 0.2672888 -0.03057563 0.02815593 0.008194794
-0.03001747 0.11328164 0.06326153 0.038620632 -0.0042316224 -0.028131193 0.11488637 0.028496364
-0.040236436 0.19211745 -0.21432886 -0.079417154 -0.30235794 -0.022222571 0.037044525 -0.008887606
0.14774185 0.009759621 0.03628743 0.078974985 0.12889135 0.12540524 -0.1665762 0.14275035
0.013404827 -0.00016583873 -0.035154577 -0.044427425 -0.016561214 -0.045753647 0.027049743 0.11215186
-0.054334044 -0.026228858 0.011090532 -0.038016696 -0.06524263 -0.059588864 0.016630666 -0.08232592
-0.115330316 0.18900934 -0.024023218 -0.0595265 0.1645616 0.14107406 -0.013041345 -0.018338742
-0.01658831 0.1175165 -0.034038324 0.20161635 -0.025758673 0.002193032 -0.015155641 -0.17101502
-0.054630745 -0.114518255 0.14786996 -0.01194153 0.0016528873 0.01737479 0.04877892 0.12519144
-0.0039515276 0.08118335 0.093826026 -0.029944032 -0.035391994 -0.016864222 -0.010450694 -0.0046214126
0.025123125 0.103108585 -0.30578837 -0.05418476 -0.01982432 0.16443612 0.05410291 0.0021430196
0.1327021 -0.03179333 -0.022322768 0.02075488 -0.061619606 0.023389002 -0.07784906 -0.03654509
0.03275885 0.045346443 0.015161588 0.010841572 0.071002126 -0.029610315 0.034274742 -0.042675555
0.0005557912 0.0119193485 0.07029216 -0.0346088 0.026112538 0.010871126 -0.032051634 0.030796165
-0.03437243 0.06801846 -0.03574228 -0.057645056 0.12126043 0.26707137 0.16697672 0.033405308
0.016670972 0.009202429 -0.017392155 0.11170868 -0.04403421 0.12676445 -0.08807354 -0.011374679
-0.03402838 0.022008467 -0.043648563 0.11543672 -0.012040221 -0.049899682 -0.0019904647 0.17981204
0.057447195 0.1353847 -0.015899757 -0.038667463 -0.014559327 -0.052321725 -0.020344967 0.117374904
00000000: d217 493b d98b 43bd 89f1 cc3d 2f59 b6bd
00000010: 598b 1ebd eb57 d03d f745 30bd 51f2 0c3e
00000020: 3457 713c 09f2 5c3d 555b a5bc 15a9 8a3d
00000030: 5b2a 94bc 3a0a 113d 51a3 9bbc 0caf 98bd
00000040: accc bbbc dde3 6e3e 37d2 0ebd e7a3 cdbc
00000050: 1a41 3b3c a8f3 d33d 6dec a63d 75e9 25bd
00000060: c337 1ebd 06e8 26bd 7f00 6cbd ab46 22bd
00000070: bf84 943d f316 60ba 22b8 b6bc 7d8e d13c
00000080: 3de3 2c3e 6bb6 89be ecdc 18bb 76ed 64bc
00000090: e526 1bbd 41ca f73d fd35 8f3d e5b6 693e
000000a0: 72da 63bd bddb 11bc 872f 0cbd ad12 f83d
000000b0: e3d4 5e3d 4fb0 29bd 891d 1abd 66d4 bfbc
000000c0: 57fb 453e 9abf 873c 4e1b b83d 25a7 093d
000000d0: aa1b a43d a12c 0abd 87d4 823d 4258 6dbd
000000e0: 3437 113d 35de 4cbd 2c1c bcbc a56b 3d3e
000000f0: acea 613d 7694 45bd e10c 51bd d3a6 27bd
00000100: 0acb 053e cdc6 093c 4683 8cbd cea8 f03c
00000110: 2dca 4d3e 8528 9d3d fc0f 3a3c ef19 9a3d
00000120: 9295 e83d d010 ab3c b3da 1dbd f50d 88bd
00000130: c839 3dbd 9794 123e d42d fb3b 16fe ea3c
00000140: ef35 38bd 1e87 93bb 7bce 2b3d 685e a4bb
00000150: fad2 ee3c 35c1 8e3c 3043 fdbc 78a5 983d
00000160: 78c4 fd3d d61c a13c 792a 063d 0a79 58bb
00000170: 6a57 013e 5031 a73d 6a1a 053d 0ad9 04bd
00000180: da89 cd3c 458d 9e3d 5947 22bd 2be3 253d
00000190: be41 1a3d 16fd 813c 42d0 7ebc e85b 03bd
000001a0: c189 623c 9f72 833d 7e68 63bd 0e28 2c3c
000001b0: cf39 28bd 798e 573d 7cdb 9bbd 5ef3 ff3b
000001c0: 46ea ecbb 7ee8 acbc 5bdf 3fbd f8bd d7bc
000001d0: 14da 883e be79 fabc 44a7 e63c 7543 063c
000001e0: 32e7 f5bc 3400 e83d 438f 813d ab30 1e3d
000001f0: 6ca9 8abb 6373 e6bc 8c49 eb3d 3571 e93c
00000200: f6ce 24bd 70ba 443e 0679 5bbe 76a5 a2bd
00000210: a9ce 9abe 1c0c b6bc 00bc 173d 529d 11bc
00000220: a449 173e d1e6 1f3c 21a2 143d a3bd a13d
00000230: 18fc 033e 3b6a 003e f492 2abe 262d 123e
00000240: eb9f 5b3c ffe4 2db9 3ffe 0fbd 88f9 35bd
00000250: 62ab 87bc 2d68 3bbd 6c97 dd3c e0af e53d
00000260: 608d 5ebd e7dd d6bc 10b5 353c 65b7 1bbd
00000270: ee9d 85bd 7413 74bd 093d 883c 7e9a a8bd
00000280: 4d32 ecbd aa8b 413e 57cc c4bc 0fd2 73bd
00000290: d682 283e b875 103e 5eab 55bc 213b 96bc
000002a0: 35e4 87bc 7eac f03d c56b 0bbd 8474 4e3e
000002b0: da03 d3bc f9b8 0f3b 5e4f 78bc 901e 2fbe
000002c0: 7dc4 5fbd 8c88 eabd 396b 173e 68a6 43bc
000002d0: b2a5 d83a 9355 8e3c 68cc 473d 2f32 003e
000002e0: d17b 81bb 7543 a63d dc27 c03d 304d f5bc
000002f0: 32f7 10bd d626 8abc 6339 2bbc 386f 97bb
00000300: 03cf cd3c 982a d33d 4b90 9cbe d7f0 5dbd
00000310: 9d66 a2bc f161 283e 039b 5d3d e771 0c3b
00000320: 0fe3 073e b939 02bd 3dde b6bc 2306 aa3c
00000330: d764 7cbd 4b9a bf3c 546f 9fbd 4eb0 15bd
00000340: 252e 063d 31bd 393d 4f68 783c d9a0 313c
00000350: 9069 913d 5591 f2bc ac63 0c3d 90cc 2ebd
00000360: 84b2 113a 5f49 433c 56f5 8f3d f5c1 0dbd
00000370: f6e9 d53c cf1c 323c 9348 03bd 3d48 fc3c
00000380: 1bca 0cbd 434d 8b3d 7f66 12bd 391d 6cbd
00000390: 6357 f83d 94bd 883e f2fb 2a3e 01d4 083d
000003a0: 9091 883c c9c5 163c fe79 8ebc 85c7 e43d
000003b0: 375d 34bd 8ace 013e e65f b4bd dd5c 3abc
000003c0: 5861 0bbd 1a4b b43c d6c8 32bd 166a ec3d
000003d0: 5944 45bc 9c63 4cbd 7572 02bb a620 383e
000003e0: c04d 6b3d 49a2 0a3e 3540 82bc c661 1ebd
000003f0: 3e8a 6ebc 4e4f 56bd 7daa a6bc 4162 f03d

fc2.weight f4 [128, 256]
0.013407059 0.028913341 -0.11973804 0.053462636 -0.008200549 -0.06872798 -0.015451193 -0.089654334
-0.0033504888 0.0584469 -0.03997074 -0.08885188 -0.0034658015 -0.05884788 -0.1984589 -0.04561954
0.04454798 -0.094903864 -0.05335144 0.04228907 -0.051719032 -0.12509628 -0.05537073 0.008597173
-0.015672592 -0.069104835 -0.0406895 0.027417157 -0.19529068 -0.008422859 -0.019621141 -0.09493426
-0.11136515 0.006404674 -0.013723083 0.056464553 -0.039277963 -0.030877022 -0.008219606 -0.04660661
0.011425629 -0.024563111 0.04254625 -0.3109231 0.15513057 -0.05286166 0.043974135 0.049652986
-0.004609588 -0.05011636 -0.020820042 0.02819114 0.03002505 0.021026716 0.020568777 -0.02361881
0.032657906 0.09420802 -0.020873003 -0.095327444 -0.08414415 0.061934814 0.0048456714 0.05296967
-0.034215562 -0.06298018 -0.06961021 0.0345547 -0.1468872 0.046098564 0.11084235 0.075053245
-0.07781359 0.022143614 0.019188523 0.03396267 -0.0002568364 0.06348317 0.025097713 0.07837797
-0.0044650896 -0.0073414966 0.09137717 -0.039462738 0.029668026 0.10384466 -0.05532056 0.10147562
0.047054723 -0.027731117 -0.051638126 -0.002993673 -0.042659443 -0.097469255 -0.17800131 0.024479173
0.016638728 0.08156522 0.025703654 -0.15739237 -0.065905735 -0.087732725 -0.111858495 0.046187185
-0.056164034 -0.016638964 0.051300414 0.05413486 -0.03971353 0.05073766 0.18260366 0.04643947
0.0037732124 0.0031499937 -0.005387001 0.015845083 0.10806313 -0.029462626 0.0056326613 -0.039942376
0.005773675 -0.02471752 -0.08350683 0.013527244 -0.018521294 -0.020832844 -0.09042415 0.047372226
0.026259989 -0.00237007 0.14539608 0.009095958 0.111791 -0.049932454 0.012002548 -0.02173429
0.038906537 -0.054297343 -0.19188824 0.01308282 -0.06052225 -0.1194923 0.11213747 -0.033603936
-0.0075868657 0.035710923 0.03404496 -0.019270465 0.028248033 -0.013315953 0.038387373 0.08233333
0.017656356 0.060230713 0.035154253 0.008685574 0.0204719 0.020293728 0.042715915 0.08189286
0.028452724 -0.014049388 -0.024811596 -0.031352185 -0.028102454 0.046593092 0.013746232 0.03727588
-0.019257545 -0.0072002863 0.042054296 -0.013501299 0.024850607 0.03292571 -0.039217636 0.10712957
0.056376144 0.015538428 -0.1614683 -0.03569144 -0.010999367 -0.0049449857 0.11923934 -0.23784219
-0.018340543 -0.06569724 -0.04648963 0.23830847 0.016761512 0.007989712 0.01839175 0.01632309
0.0018478632 -0.03997338 -0.007246295 0.072688416 -0.03800428 -0.103061706 0.21003628 -0.025711052
-0.107271165 -0.034842562 0.0017776936 0.056215316 -0.042315893 -0.019879138 0.07267823 0.1716118
-0.09042705 -0.021258855 0.027225768 -0.043267936 0.07736965 0.021646388 0.09632251 -0.052712433
0.07024137 -0.17798759 0.065819934 0.07908883 0.13423271 -0.044805337 -0.02686894 -0.022180902
-0.03400234 -0.06996453 0.02794177 -0.039359458 -0.06526298 -0.13573824 -0.02080984 0.004857734
-0.03339205 -0.059390172 -0.025240727 -0.044689786 0.053777255 -0.17230272 0.10648928 0.02806881
-0.06247545 0.044981115 0.029102048 -0.10713131 -0.04232955 -0.0466832 -0.047894023 0.103009865
-0.0050448566 -0.11296493 -0.04136946 -0.0065731034 -0.0009723231 -0.050593704 -0.016743233 0.08756122
00000000: 48a9 5b3c acdb ec3c 3839 f5bd a3fb 5a3d
00000010: 985b 06bc 41c1 8cbd 0027 7dbc b19c b7bd
00000020: e093 5bbb 0466 6f3d 5cb8 23bd f9f7 b5bd
00000030: 8022 63bb 7a0a 71bd cf38 4bbe 8edb 3abd
00000040: f177 363d f55c c2bd 0a87 5abd 4e37 2d3d
00000050: 56d7 53bd 3d19 00be 6bcc 62bd 28db 0c3c
00000060: cf63 80bc d686 8dbd 08aa 26bd f299 e03c
00000070: 48fa 47be 0800 0abc 84bc a0bc e56c c2bd
00000080: 6913 e4bd 4dde d13b c8d6 60bc 6047 673d
00000090: eee1 20bd cff1 fcbc 87ab 06bc 93e6 3ebd
000000a0: 9032 3b3c 9438 c9bc fa44 2e3d 5031 9fbe
000000b0: 8cda 1e3e 7885 58bd 391e 343d ee60 4b3d
000000c0: 070c 97bb d046 4dbd cb8e aabc 1bf1 e63c
000000d0: 18f7 f53c 3840 ac3c da7f a83c 3c7c c1bc
000000e0: 4cc4 053d 22f0 c03d dcfd aabc 093b c3bd
000000f0: c553 acbd 5caf 7d3d 70c8 9e3b baf6 583d
00000100: 9e25 0cbd c1fb 80bd cc8f 8ebd 3b89 0d3d
00000110: 9969 16be d9d1 3c3d 5001 e33d 84b5 993d
00000120: bb5c 9fbd 8666 b53c 4031 9d3c 711c 0b3d
00000130: 00a8 86b9 7703 823d b899 cd3c a184 a03d
00000140: e34f 92bb f090 f0bb f423 bb3d aea3 21bd
00000150: 5c0a f33c 82ac d43d d097 62bd 73d2 cf3d
00000160: 74bc 403d 5e2c e3bc 8082 53bd 8031 44bb
00000170: abbb 2ebd f69d c7bd fa45 36be 8c88 c83c
00000180: f14d 883c ab0b a73d 7890 d23c 772b 21be
00000190: 96f9 86bd 37ad b3bd 1116 e5bd c62e 3d3d
000001a0: 420c 66bd 704e 88bc 6220 523d 84bc 5d3d
000001b0: a8aa 22bd 4bd2 4f3d 74fc 3a3e 5037 3e3d
000001c0: 0048 773b 2070 4e3b 7185 b0bb 8ccd 813c
000001d0: 3450 dd3d 9b5b f1bc 3092 b83b 9e9a 23bd
000001e0: 1931 bd3b 667c cabc a105 abbd 60a1 5d3c
000001f0: f8b9 97bc a4a9 aabc 4c30 b9bd 6109 423d
00000200: 301f d73c 2d53 1bbb b6e2 143e 3707 153c
00000210: aef2 e43d f985 4cbd 56a6 443c 1c0c b2bc
00000220: 765c 1f3d e466 5ebd 5a7e 44be 5359 563c
00000230: 2ee6 77bd 61b8 f4bd 54a8 e53d 48a4 09bd
00000240: 3e9b f8bb 9e45 123d ba72 0b3d 18dd 9dbc
00000250: 6b68 e73c 282b 5abc 143c 1d3d 609e a83d
00000260: 10a4 903c 7bb4 763d e8fd 0f3d f04d 0e3c
00000270: b0b4 a73c 083f a63c e2f6 2e3d 72b7 a73d
00000280: b015 e93c 672f 66bc b041 cbbc 266b 00bd
00000290: 1e37 e6bc 66d8 3e3d e037 613c 98ae 183d
000002a0: 00c2 9dbc 61f0 ebbb 2041 2c3d 8d34 5dbc
000002b0: 8093 cb3c 1cdd 063d aca2 20bd bf66 db3d
000002c0: acea 663d e494 7e3c f257 25be 3031 12bd
000002d0: b036 34bc 8c09 a2bb c133 f43d e78c 73be
000002e0: e83e 96bc 468c 86bd e96b 3ebd 2307 743e
000002f0: 704f 893c 48e7 023c 4caa 963c 00b8 853c
00000300: 0034 f23a 20bb 23bd 5472 edbb aadd 943d
00000310: 60aa 1bbd 0412 d3bd c013 573e fc9f d2bc
00000320: fcb0 dbbd 13b7 0ebd 8001 e93a 0842 663d
00000330: 6e53 2dbd 93d9 a2bc 53d8 943d 01bb 2f3e
00000340: d131 b9bd 0d27 aebc 9308 df3c b839 31bd
00000350: fb73 9e3d c453 b13c bc44 c53d fee8 57bd
00000360: b5da 8f3d 6142 36be 9acc 863d 53f9 a13d
00000370: 4d74 093e cd85 37bd 401c dcbc b9b4 b5bc
00000380: 0a46 0bbd 9049 8fbd 24e6 e43c 6237 21bd
00000390: 99a8 85bd f7fe 0abe 6679 aabc a02d 9f3b
000003a0: 1ac6 08bd 1c43 73bd a4c5 cebc a30c 37bd
000003b0: 8a45 5c3d 2070 30be 0d17 da3d 90f0 e53c
000003c0: 42e6 7fbd 1e3e 383d 6b67 ee3c a967 dbbd
000003d0: c061 2dbd e236 3fbd 862c 44bd d6f6 d23d
000003e0: 534f a5bb 285a e7bd 0673 29bd 3063 d7bb
000003f0: 80e3 7eba 583b 4fbd 1b29 89bc 4c53 b33d

fc2.bias f4 [128]
-0.0863775 -0.008706479 -0.0096529 0.2982312 0.041161753 0.049837656 0.04384011 0.071385816
0.048204735 -0.0012698988 -0.09621663 0.016884973 -0.01575234 -0.09317013 0.0577288 0.045922674
-0.1636295 0.057992954 -0.031638727 0.071029596 -0.027442334 0.03625137 -0.049405236 0.14117189
-0.035609357 0.1922246 0.093059406 0.029066818 -0.024650436 -0.068889216 -0.049006373 -0.05979957
-0.07812042 -0.0626824 0.26569182 -0.016608575 -0.01668422 -0.002066162 -0.026025567 -0.06798995
-0.020920921 -0.008232677 0.17622708 -0.02050468 0.033367526 0.008482735 0.043843664 -0.13149583
0.18359871 -0.0905728 -0.2713653 -0.06156849 -0.14759433 0.084485576 -0.03978487 0.04253543
-0.026295435 0.098134704 0.06690063 0.18368003 0.008391074 0.11472615 0.0039606807 -0.06570669
0.04246323 -0.14674614 0.054778844 -0.22190106 0.35678828 -0.15056117 -0.017624542 0.009136322
-0.030628538 0.1697499 0.08306329 0.33845952 0.036778454 0.10222599 -0.12750071 0.110751204
0.042431794 -0.104312785 -0.0017007171 0.34652686 0.09258651 -0.044995587 -0.18695003 -0.00459976
0.023420932 0.10694204 0.0965274 -0.15836513 0.2679176 0.14382315 -0.06730285 0.3413084
-0.006816668 -0.051667042 -0.17819041 0.18690291 -0.07732467 0.07424526 0.017522117 -0.021115398
-0.020054553 0.004688938 0.19586301 0.044402637 -0.011720722 0.11339255 -0.080219336 -0.010930126
0.07042778 0.033643156 -0.027177287 -0.040469203 0.040454637 0.046043422 0.1168696 -0.07200081
-0.004066334 0.00994182 -0.010725717 -0.05407208 -0.02263048 -0.060583763 -0.07222317 -0.20912473
00000000: b0e6 b0bd 9fa5 0ebc 3227 1ebc c3b1 983e
00000010: 3a99 283d 9222 4c3d b091 333d ba32 923d
00000020: 5472 453d bc72 a6ba 390d c5bd 5b52 8a3c
00000030: 0d0b 81bc fbcf bebd 0975 6c3d 6a19 3c3d
00000040: 7e8e 27be 058a 6d3d 9c97 01bd f777 913d
00000050: bfce e0bc 517c 143d 255d 4abd 5d8f 103e
00000060: 1edb 11bd 87d6 443e ee95 be3d 891d ee3c
00000070: b6ef c9bc ca15 8dbd e8ba 48bd 65f0 74bd
00000080: 99fd 9fbd a15f 80bd c208 883e b50e 88bc
00000090: 58ad 88bc 7268 07bb 9233 d5bc 513e 8bbd
000000a0: 5a62 abbc 5ae2 06bc df74 343e 6ef9 a7bc
000000b0: 63ac 083d 2bfb 0a3c 6a95 333d d8a6 06be
000000c0: 4d01 3c3e 3b7e b9bd 65f0 8abe 3e2f 7cbd
000000d0: f822 17be c606 ad3d 76f5 22bd a239 2e3d
000000e0: 8669 d7bc d9fa c83d 3303 893d 9e16 3c3e
000000f0: b77a 093c 8bf5 ea3d 99c8 813b 3b91 86bd
00000100: eded 2d3d 9f44 16be c85f 603d 083a 63be
00000110: f4ac b63e b52c 1abe 5861 90bc 83b0 153c
00000120: b3e8 fabc ebd2 2d3e 161d aa3d 914a ad3e
00000130: 01a5 163d dc5b d13d 8c8f 02be 87d1 e23d
00000140: f6cc 2d3d f1a1 d5bd 99ea deba f86b b13e
00000150: ff9d bd3d 4b4d 38bd d46f 3fbe 95b9 96bb
00000160: 41dd bf3c 6e04 db3d 28b0 c53d 782a 22be
00000170: 7f2c 893e 6046 133e 14d6 89bd f9bf ae3e
00000180: 5b5e dfbb d2a0 53bd 8c77 36be 7a63 3f3e
00000190: 665c 9ebd e60d 983d 8b8a 8f3c 33fa acbc
000001a0: 7249 a4bc aaa5 993b 5090 483e 8adf 353d
000001b0: 4508 40bc 5a3a e83d 094a a4bd 4514 33bc
000001c0: 713c 903d 68cd 093d e7a2 debc 09c3 25bd
000001d0: c3b3 253d 0798 3c3d 5459 ef3d 2975 93bd
000001e0: e23e 85bb 04e3 223c ebba 2fbc af7a 5dbd
000001f0: 8e63 b9bc ae26 78bd bee9 93bd cb24 56be
