HW4/simpleCNN_dropout/animals_simpleCNN.pth (torch, 734967 bytes, 18 tensors)

conv1.weight f4 [6, 3, 5, 5]
000000 86 6b 9b 3d 52 91 b4 3d 73 94 c1 3d 84 5a 04 3e
       0.07588868 0.0881678 0.094521426 0.12925154
000010 1f 80 be 3d a5 75 39 bd 75 39 b3 3d bf d4 a2 3d
       0.09301781 -0.04527821 0.087511934 0.07950734
000020 c2 ed 56 3d 90 5b 85 bc 99 08 22 bd 55 35 b7 bc
       0.052472837 -0.016279012 -0.03955898 -0.022364298
000030 a0 5b 17 3e 0c 83 d7 bc 80 82 90 3c ed c2 4c 3d
       0.14781046 -0.026307605 0.017640352 0.049990583
000040 87 6f 55 3d e4 9f 7b bd c6 39 07 3d 82 45 8b bc
       0.052108314 -0.06143178 0.03301408 -0.017000917
000050 ba 95 0b bd 65 0e 0f bd 64 79 97 3d 38 9b b4 3c
       -0.034078337 -0.034925837 0.073962 0.02204667
000060 6a d2 b8 bd 33 45 58 be 4c f5 3a bd 54 31 d1 3d
       -0.09024508 -0.21120147 -0.04564409 0.10214487
000070 da e8 fe 3c 5d 78 34 3c d6 ad 53 be d7 ec 0c bd
       0.031116892 0.011015025 -0.20671782 -0.034405556
000080 9a bb 9a 3d 52 df 83 3d 8b 01 92 3d f5 90 5a be
       0.075553134 0.06439079 0.071292005 -0.21344359
000090 e2 0a 11 be 46 9e 0b 3e f2 46 d1 3d 40 4a 5b 3d
       -0.14164308 0.13634595 0.1021861 0.053537607
0000a0 09 58 2a be 01 e9 18 be 97 a7 78 3d 99 da 12 bd
       -0.16635145 -0.14932634 0.0607067 -0.035853002
0000b0 9f a3 0a 3d 32 1f 4c 3d 31 41 05 3b 70 a6 58 3d
       0.033847447 0.049834438 0.0020333047 0.052893102
0000c0 94 70 8c 3b 2d 3c 8b bd de 97 fd 3c a1 60 60 bd
       0.0042858813 -0.06798587 0.030956205 -0.054779653
0000d0 4a 91 1a bd 68 fc 52 bd bb 73 8c bd 93 82 5a bd
       -0.037736215 -0.051510245 -0.06858011 -0.05334718
0000e0 f6 89 0e be 98 3d 20 3e e6 81 ee 3d bb aa 94 bc
       -0.13919815 0.15648496 0.1164587 -0.018147817
0000f0 c3 e5 f2 bd 5c 6a 6d bd 5e f6 fa 3d de d5 0a 3e
       -0.1186023 -0.05796276 0.12254022 0.13558146
000100 21 c3 00 bd 07 51 ad 3c a3 47 84 bd 65 61 fa 3d
       -0.03143609 0.0211568 -0.06458976 0.12225608
000110 fb 03 a8 3b 87 92 b3 3c de b4 e2 bd cb e0 21 3d
       0.0051274276 0.021920456 -0.11069654 0.03952102
000120 d1 d5 9c bd 28 07 89 3c 84 ab 79 3d 07 18 09 3e
       -0.0765797 0.016727045 0.060954586 0.13388072
000130 d3 5c c3 3d 36 93 be 3d 68 d1 b1 3d 4c 16 28 bd
       0.09539189 0.09305422 0.08682519 -0.04103689
000140 ce 95 2f 3d 3a d6 ab 3d a1 13 5b bd 62 bd 04 bd
       0.042867474 0.0839047 -0.053485516 -0.032407172
000150 50 eb e5 3b 9c 2b 46 bd 96 61 7f 3d b9 b4 85 bd
       0.007016577 -0.048381433 0.062348925 -0.06528611
000160 f7 70 0a be 89 1a cf bd 63 90 61 3d c6 37 04 3d
       -0.13519655 -0.10112483 0.05506934 0.032279752
000170 12 42 c9 bd 75 78 1a 3c 74 29 2e bd 9c f9 76 3d
       -0.09827055 0.009428133 -0.04252 0.06029664
000180 96 4e 8d bd 4c 0e 14 be 96 de a9 bd e9 2d 9d 3d
       -0.06899755 -0.14458579 -0.08294408 0.07674772
000190 c8 b7 e2 3c 63 35 7b 3d 5e ff ae bd 34 66 10 be
       0.027675524 0.06133021 -0.08544801 -0.14101487
0001a0 03 8e e8 3c ce a8 c6 3d 3e 31 02 3d d2 7e d7 bd
       0.028388029 0.09700166 0.031785242 -0.10522236
0001b0 3f 0f 28 be 55 e8 1f be dd af 34 bd a3 0b 03 bc
       -0.16412066 -0.15615971 -0.04411303 -0.00799838
0001c0 be 4a 41 bb 0e af 65 3c 5d c5 b1 bd b1 f1 29 bd
       -0.0029494013 0.014018787 -0.08680222 -0.04149026
0001d0 be e7 3c 3d 5f c5 e5 bd bb b5 32 be 67 14 22 be
       0.046119444 -0.11219286 -0.17452137 -0.15828095
0001e0 ae 42 f0 bc 96 61 74 bc 3a 3c 90 bc 39 45 9e 3c
       -0.02932867 -0.014915844 -0.017606843 0.019320117
0001f0 b7 39 cc bd 04 9b 6e 3d 45 93 5c 3d 4d 8d 15 3e
       -0.09971946 0.058253303 0.053851385 0.14604683
000200 fe 74 5a 3d 25 e7 84 3d 7b 9e b2 3d 41 e6 01 3d
       0.05333423 0.064894 0.08721634 0.031713728
000210 c0 e3 21 3d 87 65 62 bd dd a8 64 3d 2c 52 82 bd
       0.03952384 -0.055272605 0.055825103 -0.06363329
000220 6d a9 8b 3d dd 38 a3 bc 5b 76 06 bd 2d b2 b3 bd
       0.06819425 -0.019924575 -0.032827716 -0.08774219
000230 bf 00 da 3d 4f 81 af 3d 23 41 d2 bd a1 5e a5 bd
       0.106446736 0.085695855 -0.1026633 -0.0807469
000240 f3 e2 a2 bc d4 72 af bd b5 23 8f bd 57 90 c9 bd
       -0.019883608 -0.085668236 -0.069892325 -0.09841984
000250 a1 41 0a bb de 53 d6 3b 41 ee 5f 3c a5 4f 89 3d
       -0.0021096247 0.0065407595 0.013667644 0.06704644
000260 95 26 3d 3e 16 6e f1 3d 63 70 5b 3d 0d 98 11 bd
       0.18471749 0.11788575 0.053573977 -0.035545398
000270 1f bd ba bd 02 76 ed 3d 29 0f d5 bd 5d c8 1d 3e
       -0.09118103 0.11594774 -0.10403282 0.15408464
000280 aa 3d d6 bb e8 cc 34 3d fc 53 f5 3d 8f 93 bd bd
       -0.0065381126 0.044140726 0.119789094 -0.0925666
000290 b6 3f 26 3e 03 cf 34 3e de c0 2e bb ef 39 77 bd
       0.16235241 0.17657094 -0.002666525 -0.060357984
0002a0 49 30 02 3d ec b0 bc 3d 52 76 1a 3e e6 26 cb bd
       0.03178433 0.09213433 0.15084198 -0.09919529
0002b0 b9 63 ac bd 64 9c ec bd 8d dd fc bd 42 00 58 bd
       -0.08417458 -0.11553267 -0.12346945 -0.05273462
0002c0 a4 b4 fe bd fc 6c a1 3d 14 25 2a be 0e 35 4e bd
       -0.12436798 0.07882115 -0.16615707 -0.050343566
0002d0 e1 78 c5 ba d4 1f 2b be 28 64 c1 bd 92 68 b2 bd
       -0.0015065932 -0.1671136 -0.094429314 -0.087113515
0002e0 e5 12 dd 3c b3 6e 5e bd 65 fa 1d be 3b db cd bc
       0.026986549 -0.05430479 -0.15427549 -0.025128951
0002f0 e0 b4 21 bd 34 ec b6 3c f6 35 cb bc 8a 7d e5 bd
       -0.039479136 0.022329427 -0.024806004 -0.11205585
000300 3d 8b a0 bb 74 70 50 bd 86 07 22 bd ff 01 00 3c
       -0.004899411 -0.050888494 -0.039557956 0.007812976
000310 12 73 0a be 88 1b 18 3e 99 0d 07 be 3b 16 8e 3a
       -0.13520458 0.14854252 -0.13188781 0.0010840365
000320 1c bd 93 bd 2e 87 df bd 48 92 ff 3d 4a de 84 3d
       -0.07213804 -0.10914455 0.12479073 0.06487711
000330 1b 60 02 be c2 2d 04 bd bb cd 2d 3d 7d 4e 8a 3d
       -0.12731974 -0.0322702 0.042432528 0.06753252
000340 2c d5 06 be 71 a1 cf 3d 05 e8 09 3e c6 1c 01 be
       -0.13167256 0.101382144 0.13467415 -0.12608632
000350 1e 53 fa 3d 3e be 07 be 19 58 21 3e dd af ce 3d
       0.122228846 -0.13256165 0.15756263 0.10092137
000360 78 02 b5 ba c2 6a 61 bd 9c 97 9f bc d1 ec aa 3d
       -0.001380994 -0.055033453 -0.019481473 0.083459504
000370 81 11 b4 3d 96 6c 4f 3d 29 b0 2a 3e f4 92 dc 3c
       0.08792401 0.050640665 0.16668762 0.026925541
000380 6b 2c 5d bd 10 ea 3e be aa a1 5c 3d b3 44 c4 bc
       -0.05399744 -0.18643975 0.053865112 -0.02395854
000390 e5 9a 07 bd 8d da c4 bc 10 15 66 bc e1 20 28 be
       -0.033106703 -0.024029994 -0.014043108 -0.16418792
0003a0 11 db 02 bd 46 22 cb 3c c1 43 bd bb 55 26 88 3d
       -0.0319472 0.024796616 -0.005775899 0.06647936
0003b0 a9 61 50 3d e8 d2 0c 3e 5d 25 3b 3d bf 49 56 bd
       0.050874386 0.1375233 0.04568993 -0.052316424
0003c0 b8 c1 49 bd 67 bf 19 3d bc cf e0 3c 96 9e 85 bd
       -0.04925701 0.03753605 0.027442805 -0.065243885
0003d0 22 41 03 be 43 02 1d 3b b2 af b4 3b 7d 49 76 3c
       -0.12817815 0.0023957647 0.0055141086 0.015032169
0003e0 c4 3b a0 bc 6f 81 3b 3d 3a a2 9c bd ff 50 b5 3d
       -0.019559748 0.045777734 -0.0764813 0.088533394
0003f0 ee 57 d4 3d 1a 68 a8 3d 7e 7b dd 3d 9e 31 03 3e
       0.10368334 0.08222981 0.1081457 0.12811896

conv1.bias f4 [6]
000000 35 67 69 bc b1 1a 1d bd e3 8d b7 3c be 39 89 3c
       -0.014245798 -0.038355533 0.022406524 0.016751166
000010 5b 54 b9 3d 59 89 de bd
       0.09049293 -0.10866041

conv2.weight f4 [12, 6, 5, 5]
000000 d9 6a 6e 39 0c 5d 70 3c eb e3 02 3d a5 75 4c 3c
       0.00022737253 0.014670622 0.03195564 0.0124792205
000010 fd 62 e0 3c b3 7f b0 bd 29 15 ae 3d 4c 6f 83 bd
       0.027390951 -0.08618107 0.0850013 -0.064177126
000020 a2 f0 4e bd 0a 80 8e bd ae 21 d6 bd 1d 49 82 3c
       -0.050522454 -0.06958015 -0.10455643 0.015904004
000030 d5 cf 8c bd 6b 3e c1 bc 11 2d bb bd 2d 3b b2 bc
       -0.06875578 -0.023589334 -0.09139455 -0.021756733
000040 ed 6b 2f 3d 94 44 9b bd 77 20 fb bb a9 43 96 bd
       0.042827535 -0.075814396 -0.007663782 -0.07337124
000050 88 f2 c4 bd 00 32 2f 3d 82 cf 4e bc 66 90 8a bd
       -0.09616572 0.042772293 -0.012622716 -0.06765823
000060 43 7d 57 bd 04 86 06 3d 9d 98 e9 bd 23 de dc bd
       -0.052609693 0.03284265 -0.11406062 -0.10784557
000070 87 65 92 bb 7e 7c 0a 3e 1b 3f 05 3d a6 4e cb bd
       -0.0044676694 0.13524053 0.032530885 -0.099271104
000080 b0 9f 91 bd 7a 6a 11 bd 4f 67 14 3e aa 0c a9 3d
       -0.07110536 -0.035501935 0.14492534 0.082543686
000090 35 60 24 be a8 34 86 bc 98 80 dc 3d 79 69 b8 3c
       -0.16052325 -0.01638253 0.10766715 0.02251123
0000a0 46 27 b7 3d 77 13 1a be 71 50 d7 bd 8d ff f3 3d
       0.08943038 -0.15046488 -0.1051339 0.11913977
0000b0 82 ce 14 3e e1 92 76 3d cc 84 48 bd e4 e7 97 bd
       0.14531901 0.06019867 -0.04895477 -0.074172765
0000c0 a3 7e 89 3c d8 5d 96 3c 32 e8 1e 3e c1 e7 2f 3e
       0.016784018 0.018355295 0.15518263 0.17178251
0000d0 0f 16 80 bd af c8 64 bd a7 42 ac 3d 85 62 18 3e
       -0.06254207 -0.05585545 0.084111504 0.14881332
0000e0 4b 30 e9 3d 07 35 0f be 20 47 3e bd 40 0f 9f 3c
       0.11386164 -0.13985072 -0.04645455 0.019416451
0000f0 f6 64 db 3d 69 70 71 3d 38 13 2b be 2c d2 8c bc
       0.10712616 0.058945093 -0.1670655 -0.017190062
000100 a2 f9 c3 3c b1 de 6f 3d b0 6a 86 3d 8a 44 0a be
       0.023922745 0.058561984 0.06563318 -0.13502708
000110 e9 2b 52 bd 7f 2e 40 3d 41 9c f9 3c fd d2 07 3c
       -0.051311407 0.046919342 0.030470015 0.00829005
000120 9c 63 f1 bd ac 87 d5 bc f0 f1 5d 3d 66 5e 04 be
       -0.11786577 -0.02606567 0.054185808 -0.12926635
000130 70 39 8b bc d8 74 80 bd 30 e4 18 bd 58 b5 3f bd
       -0.016995162 -0.06272286 -0.03732699 -0.046803802
000140 8a f6 05 be 55 c4 73 3b 27 20 f6 bc c4 f1 47 bd
       -0.13082328 0.003719588 -0.030044628 -0.04881455
000150 5d 47 58 3d a3 74 1a be f9 1b 41 3d 65 83 40 bd
       0.052802432 -0.15083556 0.047145817 -0.047000308
000160 f6 d0 26 bc bd 32 21 bc d7 82 d2 bc 23 c7 c6 bc
       -0.010181656 -0.009838757 -0.025697155 -0.024264878
000170 a7 30 f6 bc 20 85 b1 3d e4 e6 3f 3d 3d 88 9a bd
       -0.030052496 0.0866797 0.046851054 -0.07545517
000180 87 4d 21 bc 2b 05 88 bd 4e bc c1 3d f0 1c fd 3c
       -0.009845144 -0.06641611 0.094597444 0.030897588
000190 ce b8 1d bc ba 2a 15 be d4 ed a5 bd aa 23 6d 3d
       -0.00962658 -0.1456708 -0.08102003 0.05789534
0001a0 96 e8 99 3d 0a 23 dc bb 72 b6 3b be 8b d6 aa bd
       0.07515065 -0.006718044 -0.18331316 -0.08341702
0001b0 e3 cf 9d 3d 02 ca 60 3d 88 5b 8e 3d e9 7a 4b be
       0.07705667 0.05488015 0.06951052 -0.19871105
0001c0 d2 62 00 bd 09 35 b8 ba 8a 4c ee bc 3e 07 08 bc
       -0.031344242 -0.0014053892 -0.029089231 -0.008302508
0001d0 43 40 4f be 83 df 9c bb 3b 21 ad 3d bd 1b 61 bc
       -0.20239358 -0.004787387 0.08453604 -0.0137395235
0001e0 6f 0b 15 bd b6 61 4f be f5 bb 59 bc 13 d9 15 bc
       -0.036387857 -0.20252118 -0.013289441 -0.009145993
0001f0 13 82 fa bc 66 95 91 3d 43 ff 94 3d 49 88 8b 3d
       -0.030579602 0.071085736 0.0727525 0.06813104
000200 27 bd 84 3d 22 ff 0e 3e 0f 81 2c bc b1 24 bb bd
       0.064813904 0.13964513 -0.010528817 -0.09137858
000210 15 b0 4f be 12 35 6b be 3a ee 4b 3c a9 e1 2d bd
       -0.20282014 -0.22969463 0.012446934 -0.042451534
000220 9e 0b a6 bd 46 0f 45 be ff e3 28 be 87 7c 39 3d
       -0.081076846 -0.19244108 -0.16493224 0.045284774
000230 b5 d3 66 be 22 f5 4d be 24 0d 71 be 1c 10 c4 bd
       -0.22541697 -0.20113042 -0.23540169 -0.09573385
000240 a0 0b a0 3d fe b2 34 be 5c 72 11 be 5a 62 53 be
       0.07814717 -0.17646405 -0.14203781 -0.20642987
000250 ec 8a b2 be 9b 58 07 be 04 ed 56 bc a7 23 88 3d
       -0.34871614 -0.13217394 -0.013118032 0.06647425
000260 6c b9 8a bd 56 bd 90 bd 3c d1 06 3c 5b 06 a1 bc
       -0.06773648 -0.07067363 0.008228596 -0.01965635
000270 74 be 8f 3c 62 52 80 bd 3c c7 04 be 5d 59 18 bd
       0.01754687 -0.06265713 -0.12966627 -0.0371946
000280 e0 37 dd bd e3 a1 97 3d cd 29 c2 bd 68 b5 26 be
       -0.10801673 0.07403924 -0.09480629 -0.16280138
000290 67 70 ba 3c b2 24 3b bd d5 55 06 3d 3b 49 e7 bc
       0.022758676 -0.045689292 0.0327967 -0.028233161
0002a0 54 88 01 be 44 8b 9e bd 7c fd 55 3c 0c b8 5c 3d
       -0.12649661 -0.077414066 0.013060924 0.05388646
0002b0 31 6b 0c 3d f8 c5 e4 bd 8b 59 25 3d 1d f8 f1 bb
       0.034281913 -0.11170572 0.040368598 -0.0073843137
0002c0 1d cd d3 bd e0 90 95 bd 8a f8 ed bc dd 6f b2 bb
       -0.10341857 -0.07303023 -0.029049177 -0.005445464
0002d0 30 5a e7 bd 98 37 12 be 6f 99 06 be af 6f 1e 3d
       -0.11296499 -0.1427902 -0.13144468 0.03868073
0002e0 8e 26 fc 3c 75 eb ca bc c6 67 ed bd e6 14 9f bd
       0.030780103 -0.024770478 -0.11592059 -0.07767658
0002f0 6f e4 bc 3d 22 12 1b 3e 56 f8 fc bc b1 7b 58 3b
       0.09223258 0.15143636 -0.030880135 0.003303271
000300 27 8a 82 3d 0a 24 14 3e 30 3c 17 3e 7d 9d 8c 3d
       0.06374007 0.14466873 0.14769053 0.06865976
000310 f7 9e ee bd d0 56 7b bd 5b 8a d9 3d f9 bf 0a 39
       -0.11651414 -0.061362088 0.10622092 0.00013232221
000320 6d 36 39 3c 24 a7 2a 3d 32 dc ec bc c6 73 58 3d
       0.01130448 0.041663304 -0.028913591 0.052844785
000330 a9 34 93 3c 92 68 d7 3d 3d 08 04 3d 6f 86 bc bd
       0.017969446 0.10517992 0.03223442 -0.09205329
000340 ac 4c 08 bd 39 14 cd bc 90 fb 20 3c 58 1a 22 bb
       -0.033276245 -0.025034057 0.009825602 -0.002473494
000350 d4 3c c8 bc b6 0e 4f bd 09 86 93 3d cc 7f 85 3d
       -0.024443068 -0.05055114 0.072032996 0.06518516
000360 e5 42 3a bd 8f 11 e1 bd 57 36 8c bd a0 09 cc bc
       -0.04547395 -0.10989677 -0.06846302 -0.024906933
000370 03 45 f2 bc 7c de 38 3b 32 ff a9 bd 1c d9 8b bd
       -0.029573923 0.0028208783 -0.08300628 -0.0682852
000380 3c 0e f0 3c 82 f6 1a 3c d1 60 de 3c 3a 73 3c bc
       0.029303662 0.009458186 0.027145775 -0.0115020815
000390 4a ed 03 3d 53 e0 ef bc f0 b6 d0 bb c8 1f 60 3c
       0.03220872 -0.02928177 -0.006369464 0.013679452
0003a0 15 6c c8 3d 45 e1 96 3c a3 62 e7 bc 0a 63 0e bd
       0.0978624 0.018417964 -0.028245276 -0.03476242
0003b0 29 41 af bc 22 7c 04 3e 91 4c 1d 3d 88 07 54 bc
       -0.021393375 0.12937978 0.038403098 -0.012941249
0003c0 a2 35 da bd 04 1f 49 bd 42 b8 d7 3d ec 73 a1 3d
       -0.10654761 -0.049101844 0.10533191 0.078834385
0003d0 dd 08 70 3d 70 aa bf 3b b0 86 01 3d 37 78 ff 3d
       0.058602203 0.005849175 0.03162259 0.12474101
0003e0 be c4 b7 3c c9 5b df bc f6 cf 84 3d 7b 66 83 3c
       0.022432681 -0.027265446 0.06484978 0.016040077
0003f0 00 1b b6 3d 8a 31 04 3d cf c6 a5 bd f8 ff 5a bd
       0.088918686 0.032273807 -0.0809456 -0.053466767

conv2.bias f4 [12]
000000 40 87 6d 3d 07 fd e4 3d 82 51 99 3b cb f3 d6 bd
       0.057990313 0.11181074 0.004678906 -0.104957186
000010 4f 63 e3 3c ec a9 fa bd 1f 14 dd bb ac 90 41 bd
       0.027757315 -0.12239441 -0.0067467834 -0.04725711
000020 40 f4 a1 3c d9 ef 3c 3d 16 6e 7f 3d ec 16 2f 3e
       0.019769788 0.046127174 0.062360846 0.17098588

conv3.weight f4 [16, 12, 4, 4]
000000 fe 08 c6 bd 42 b8 c7 ba 42 d0 61 bd ed 9f 13 3e
       -0.09669684 -0.0015237408 -0.05513025 0.14416476
000010 54 f8 d1 bd 28 5f c9 3c 41 41 09 3d bf 40 b4 3d
       -0.10252443 0.024581507 0.033509497 0.08801412
000020 0a 3a 9a bd f0 18 9d 3d d8 f0 d4 3c 5a b7 ab bd
       -0.07530601 0.07670772 0.02599375 -0.08384581
000030 e2 d0 43 be 68 36 71 bd 3c f4 72 bd 3b ce 61 3d
       -0.19122651 -0.058889776 -0.05931495 0.055128317
000040 87 a0 9c bd bf f3 69 bd 16 06 74 bc 9a 0a b8 bd
       -0.07647806 -0.05711722 -0.014894029 -0.08986397
000050 44 c0 d9 bc bd 7b 4f bc de f4 05 bc b9 60 31 bd
       -0.026580937 -0.012663779 -0.008176057 -0.043305133
000060 9a 22 b2 bd 8e fe ab bc bc 05 fe 3c 04 e2 b9 3d
       -0.08698006 -0.020995405 0.031008594 0.09076312
000070 36 4d 1d be 06 60 bd bb b9 2a 15 3d cb 36 6e 3d
       -0.15361485 -0.005779269 0.036417697 0.058157723
000080 53 9d 27 3e e4 75 1a 3c a4 16 16 3e ef 20 00 3e
       0.16368608 0.009427521 0.14657074 0.12512563
000090 eb 00 81 3d 54 34 5f bd a5 fc aa 3c e7 36 b3 3c
       0.06299003 -0.054493263 0.020872423 0.021876765
0000a0 28 49 71 3d d4 24 37 3d 99 14 10 bd 8d 51 3a bb
       0.058907658 0.044712856 -0.035175893 -0.0028429956
0000b0 65 41 ad bd cc 25 14 be 9f db d3 bd e7 09 3d be
       -0.08459739 -0.14467543 -0.10344624 -0.18460809
0000c0 a6 ff 15 3e 33 54 51 3d d1 f7 ff 3d af 0e ad 3d
       0.14648303 0.05110569 0.12498439 0.08450066
0000d0 ff 67 fb 3d b1 f0 cf 3d cc 01 f0 3d 22 69 b9 bc
       0.12275695 0.1015333 0.11719093 -0.022633139
0000e0 86 68 66 3d 26 01 45 3d de 67 50 3b d3 fb c8 bd
       0.056252025 0.0480968 0.003180019 -0.09813657
0000f0 f2 fb f1 bc ea 33 09 be 3d ff 6b bd 51 e2 3a bd
       -0.029539082 -0.1339871 -0.05761646 -0.04562599
000100 39 8d 39 bd ff a9 3c bd c7 67 9d bd f4 80 e4 bd
       -0.045300696 -0.04606056 -0.076858096 -0.11157408
000110 0f 91 6c bd 15 98 5c 3b 68 e5 bf bc 69 ad 6d 3c
       -0.057755526 0.0033659984 -0.02342482 0.014506676
000120 21 a3 9e 3c 36 03 55 bd 87 0a 2d 3c f1 85 31 3d
       0.019364895 -0.052005015 0.010561592 0.043340627
000130 46 d8 7c bd f8 d1 d4 bc 4f 40 83 bd 10 7b dd bd
       -0.061729692 -0.025979027 -0.0640875 -0.10814488
000140 01 2b 87 bd b6 c6 87 3d 2a cd a0 3d ec 35 09 bd
       -0.06599999 0.06629698 0.07851632 -0.03349869
000150 bd c7 0b 3d 58 20 4f bd d2 12 1b bc b7 70 4f 3d
       0.034126032 -0.050567955 -0.009464936 0.050644603
000160 69 a0 9b 3d b8 bd 99 3d 61 0f 6d 3d 89 eb 67 3d
       0.07598955 0.07506889 0.057875995 0.05662111
000170 e5 8f b9 3b fd ad 84 3d 0f 65 ad bd 5f ef ba bc
       0.0056629055 0.06478498 -0.08466541 -0.02281922
000180 a2 c6 50 3e f7 e5 08 3e f9 43 37 3e ad 24 54 3e
       0.20388272 0.13368975 0.17897023 0.20717116
000190 cd 70 b7 3d 8d 7f dd 3d 98 a3 ff 3d a8 d3 04 3e
       0.08957062 0.10815344 0.12482375 0.12971365
0001a0 db 61 0d bd e7 fe 04 3d 68 f3 10 bd b8 49 79 3d
       -0.03451715 0.032469656 -0.03538838 0.06086132
0001b0 74 77 90 bc e2 e0 9d bd 21 0c 86 bc 8e 9d 52 bd
       -0.017635085 -0.077089086 -0.016363205 -0.051419787
0001c0 90 40 2b 3d 64 f1 04 3d cb 61 be 3d 75 97 62 3c
       0.04180962 0.03245677 0.09295996 0.0138300555
0001d0 2e 8f 64 bd 0b cd 5d 3b 90 37 9a 3d 99 d7 14 bd
       -0.05580061 0.003384414 0.07530129 -0.036338422
0001e0 18 7e 42 3c d2 7c e2 bc 1d 2c 33 3c 3c ed 3e bd
       0.011870883 -0.02764741 0.01093581 -0.046612963
0001f0 df 4f db 3a c7 66 07 bd 36 01 ed 3c 35 ea a3 bd
       0.0016732177 -0.033057 0.028931241 -0.08003656
000200 f5 34 ef 3d 73 fd d6 bd 23 25 2e bd 5f b2 00 3d
       0.116800226 -0.1049756 -0.042515885 0.031420108
000210 bd 3e 2b 3d 7c 4c 4a bd 29 53 28 bc 4d b8 30 3a
       0.04180788 -0.049389347 -0.010273733 0.000674133
000220 7e 3d a2 3c 72 75 d3 3d 02 97 b6 bc 79 30 c0 3d
       0.019804712 0.10325135 -0.022288803 0.093842454
000230 f2 16 03 3e 3f 40 94 3d 2d 0d 49 3e 61 ee b4 3d
       0.12801722 0.072388165 0.19633932 0.0883453
000240 c0 49 ca bc 64 36 92 3d 67 30 8f 3d db 49 9f bc
       -0.02469337 0.071392804 0.06991654 -0.019444397
000250 bb 6a 2f 3d 69 fa 91 3b cd 86 75 bd 74 35 59 3d
       0.042826395 0.0044549 -0.05994301 0.053029492
000260 c7 73 0b 3c 51 97 f1 bc e0 f3 04 be bb 38 c1 3c
       0.00851149 -0.029491099 -0.12983656 0.023586622
000270 c0 a7 b8 bd 30 42 78 bd 42 93 59 bd fe 0d 46 be
       -0.09016371 -0.060609996 -0.05311895 -0.19341275
000280 3e fd 76 bb 8c ce 93 bd f5 4a 56 bd c7 28 92 3d
       -0.0037687565 -0.0721713 -0.05231758 0.07136684
000290 87 43 ca 3d 54 0b 87 3d 12 c8 a8 3d 4d 21 96 3d
       0.09876161 0.065939575 0.082412854 0.0733057
0002a0 17 09 a2 bc 7c aa f7 3d 3e f2 0e 3d fd 45 36 bd
       -0.019779725 0.12093064 0.03489899 -0.04450034
0002b0 73 5c 3f 3d 11 27 de 3d a1 c5 f9 bb 81 fb 3d 3d
       0.046719026 0.10847295 -0.007622436 0.04638243
0002c0 95 f9 ae bd 8e 7a 2b bd 12 6c 1f bc 78 43 4b bd
       -0.08543698 -0.041864924 -0.009730356 -0.04962489
0002d0 b6 9a a8 bd b6 0e 86 3d 5d c2 2b bd 9f 55 95 bd
       -0.08232634 0.06545775 -0.041933406 -0.072917216
0002e0 8f 6a 28 3d 21 3c 70 3d f7 e4 53 bc 2a d4 0c bc
       0.041117247 0.058651093 -0.012933007 -0.008595506
0002f0 c4 29 46 3b 06 63 0b 3c 1a 21 a3 bc 8b ee 79 3d
       0.0030237297 0.008507496 -0.019913245 0.061018508
000300 28 3a 86 3d 9f 2d a7 3d 7a 25 0c 3e 51 b7 e2 bd
       0.06554061 0.081629984 0.13686171 -0.11070121
000310 64 df 10 3d 93 50 c5 3d 0f ca c6 3d c1 70 98 bc
       0.035369292 0.09634509 0.09706508 -0.018608453
000320 ed 08 b5 3d 6b 86 de 3d e9 fd 32 3d 86 40 42 3b
       0.08839593 0.10865482 0.04369918 0.002964051
000330 8f 4b bc 3d 27 39 22 3e b4 fa 4e 3d 0a ff 0a bd
       0.09194099 0.15842114 0.050532058 -0.03393463
000340 1a ce 0f bd 12 7b e8 3d cc 97 a4 3d 85 f9 eb bc
       -0.035108663 0.11351599 0.080367655 -0.028805504
000350 97 13 13 bd b2 63 76 3d c6 f7 41 3c 89 bf db 3d
       -0.035907354 0.06015367 0.011838859 0.10729892
000360 c8 1f 7d bc 4d 20 7b 3d 33 1c 84 3d 6e a5 93 3c
       -0.015449472 0.0613101 0.06450691 0.018023219
000370 c2 07 30 be 69 24 b2 bd b7 32 9e 3d 58 6d 4b bd
       -0.1719046 -0.08698351 0.07724517 -0.049664825
000380 04 2d 46 bc 7f ac b3 bd 2a 04 2a bb 75 f3 10 bd
       -0.0120956935 -0.087731354 -0.0025942423 -0.03538843
000390 a4 bc b7 3d 61 9c 1e bd 7a 79 82 3d dc 89 9b 3d
       0.08971527 -0.038723353 0.06370826 0.07594654
0003a0 a6 04 cf 3d 0d 29 3c ba 61 23 35 3c 82 74 8d 3c
       0.101083085 -0.0007177748 0.011055798 0.01726747
0003b0 38 ed ac 3d a5 6a a2 3d 0f 71 29 3d fa 73 41 3d
       0.084436834 0.07930497 0.041367587 0.047229744
0003c0 2b 8e c5 3a 9f 29 cb bd e0 f1 a3 bd 84 a6 04 3d
       0.0015072277 -0.09920048 -0.08005118 0.032385364
0003d0 2c 44 fe 3d 0e ac 97 3d c3 c5 0a be eb bf c1 bd
       0.124153465 0.07405864 -0.13552003 -0.094604336
0003e0 00 40 9d 3b f3 00 83 bc 19 c6 e6 bd 36 54 4b bd
       0.004798889 -0.015991664 -0.11268253 -0.049640857
0003f0 cd a9 a8 3d b0 84 61 3c e8 c5 e7 bd 14 e9 09 be
       0.08235512 0.013764545 -0.113170445 -0.13467818

conv3.bias f4 [16]
000000 6c 80 0e be e4 2f 45 bd ba b7 12 be 2d 38 c6 3c
       -0.13916177 -0.048141375 -0.14327899 0.024196709
000010 1e 7f d5 bd 92 28 c3 3d d2 13 1a 3e 7e 1e b3 3d
       -0.10424636 0.095292225 0.15046623 0.0874605
000020 f4 ee 9f 3d 3f ad 61 3c 58 4a 40 3d 44 e0 88 bc
       0.078092486 0.013774215 0.0469459 -0.0167085
000030 a4 bc 05 3e a4 92 0a 3e f0 50 9d bc 7a 02 89 bd
       0.13060242 0.13532501 -0.019203633 -0.066899255

conv4.weight f4 [20, 16, 4, 4]
000000 dc 17 11 be 6d 9a be bd 0a 82 ca bd bc cb 83 bc
       -0.14169258 -0.09306798 -0.09888084 -0.016088359
000010 64 4d 71 bd 03 08 97 bd 66 61 a2 bd fe 88 69 3d
       -0.058911696 -0.07374575 -0.079287335 0.05701541
000020 25 f8 65 bd 15 57 6c 3d 89 c4 e2 bc 33 91 a3 bc
       -0.056144852 0.057700235 -0.027681606 -0.019966697
000030 f6 41 43 3d 6e cf 66 3a 84 ef 62 bc 85 3a d4 3c
       0.047670327 0.0008804713 -0.01385105 0.02590681
000040 f4 e2 a8 3c 5f 10 c0 3b 17 56 c7 3d f3 4f cf 3d
       0.020616032 0.0058613266 0.09733217 0.10122671
000050 c5 7a 52 bd af 70 12 3d 0a cd 34 3d be 80 e1 3c
       -0.051386613 0.035751995 0.044140853 0.02752721
000060 20 c2 06 3d 94 69 b2 3d 6b 8a 6a 3d ac 5b 20 3d
       0.032899976 0.08711544 0.057260912 0.039149925
000070 45 56 0b bd ca 9d fc bc d1 6c b2 bd 83 bd 95 3c
       -0.03401782 -0.030836958 -0.08712161 0.018278843
000080 fe b7 de bd ed 98 b3 bd 1c d4 b3 bc ae b5 2a bd
       -0.108749375 -0.08769403 -0.021951728 -0.04167717
000090 ed b9 5e 3c 02 a5 1a 3d e2 01 57 bc 79 71 f4 3c
       0.013594133 0.03775502 -0.0131230075 0.029839264
0000a0 52 67 b0 bc be b1 75 3d 33 42 9e bc b4 49 91 bc
       -0.021533642 0.05998396 -0.019318676 -0.01773534
0000b0 06 30 5a 3d 85 ca 94 bd 2e 9b 46 bd 3c a5 72 3d
       0.053268455 -0.0726519 -0.048487835 0.05923961
0000c0 c9 0d 71 be 39 d6 0a be 2f e0 5f be d3 70 28 be
       -0.23540415 -0.13558282 -0.21862863 -0.16449289
0000d0 4f 2b 0c be 3a 4b 09 3c 01 94 b5 bd b4 f2 9b bd
       -0.13688396 0.008379752 -0.0886612 -0.07614651
0000e0 e4 26 94 be 76 a2 23 3d 53 af a5 3d d4 71 7a 3c
       -0.2893592 0.039949857 0.08090081 0.015285928
0000f0 47 cd 3a be 6b 00 a4 bd dc 24 fe bd 73 be e6 3d
       -0.1824237 -0.08007892 -0.12409374 0.11266794
000100 6f 07 5a bd 07 ad 5e bd 92 e1 21 3b 42 31 ad 3b
       -0.053229745 -0.05436423 0.00247011 0.005285413
000110 89 0b 4f bd 1f f6 23 bd 40 eb 4b bd d3 c9 29 bd
       -0.05054811 -0.04002964 -0.0497849 -0.04145224
000120 55 51 72 3b fa eb b8 3d 89 76 77 3c dd dd 22 bd
       0.0036974747 0.09029384 0.015103945 -0.039762367
000130 09 49 89 3d 3e ee 02 3d e2 92 8c bc 70 c5 3e bd
       0.067033835 0.031965487 -0.017159883 -0.04657501
000140 0f c1 2f 3d e8 0d c1 3d fa 32 82 3d 88 2f 0f 3d
       0.042908724 0.094264805 0.06357379 0.03495744
000150 fe f0 86 3d c4 d1 5d 3d 63 39 09 3d aa 8c 41 bc
       0.06588934 0.054155126 0.033501994 -0.011813322
000160 56 25 14 bd 72 0c bb 3d ae a1 2a 3d 6c af f6 3d
       -0.03616842 0.09133233 0.041658096 0.12045178
000170 ee bb 09 3d d7 6c 89 3d 11 cc f9 3c 6d 95 b2 bc
       0.03362649 0.06710213 0.030492814 -0.021799767
000180 df 31 0e be 80 f8 f9 bd 9f e4 7f bc b7 4e 18 3e
       -0.13886212 -0.12205601 -0.015618472 0.14873777
000190 92 d0 5b bd 5d 4a 77 bc ac 9f 48 3e 25 4b d7 3e
       -0.053665705 -0.015093413 0.1959216 0.42049518
0001a0 c0 9e 3a be 13 7b af bd 26 d8 24 3d f9 79 35 3e
       -0.18224621 -0.085683964 0.040245198 0.1772231
0001b0 00 40 48 be 9e 46 6d be 7d b3 de bc 24 45 d9 bd
       -0.19555664 -0.2317147 -0.027185196 -0.10608891
0001c0 3f 7f 7c 3d 3a a2 20 3d 76 f7 b3 bd 4d cc 87 3c
       0.06164479 0.03921721 -0.08787434 0.01657691
0001d0 61 43 07 bd 4d c5 8f bd 57 2d 49 bc 24 ca b6 bd
       -0.033023242 -0.07020054 -0.012278876 -0.08925274
0001e0 d8 ae 47 bb 88 c7 04 bd e4 60 34 3d 7a fb c7 3c
       -0.0030469205 -0.03241685 0.044037715 0.024411906
0001f0 e8 d2 74 bc e1 34 97 3c 06 63 6a 3d 66 1d 02 be
       -0.014942862 0.018457832 0.057223342 -0.12706527
000200 0d f1 66 bc 78 5b 5e bd f0 03 40 3b 33 74 73 bd
       -0.014095557 -0.05428645 0.0029299222 -0.059436988
000210 0f 1d cf 3c 74 57 b2 3d 18 53 35 3d 5d 21 35 bd
       0.02528241 0.087080866 0.044268698 -0.04422127
000220 ba 13 17 bd 34 17 dc bb 1c ea 91 3d c8 ec 06 bc
       -0.036884047 -0.006716633 0.07124731 -0.008235164
000230 e4 a9 22 bd 5d ee 59 bd f7 ae 9c 3d 93 c4 f1 3c
       -0.0397128 -0.053205837 0.076505594 0.02951268
000240 75 20 f8 bb e9 ad fa 3d 51 9d 48 3e 9f f7 32 bc
       -0.0075722286 0.12240202 0.19591261 -0.010923295
000250 be c5 d5 3c a0 46 08 bd 26 6e 39 3d 1e 01 c4 3c
       0.026095267 -0.03327048 0.04527106 0.023926314
000260 ba e5 b9 3d 90 d8 a7 bc a5 83 2d bc 88 97 be 3d
       0.0907702 -0.020489007 -0.0105904685 0.09306246
000270 5b 04 93 3d 9b 4a 0e 3d 41 88 27 3d a6 8d 91 3d
       0.07178565 0.034739118 0.040901426 0.071070954
000280 c3 34 5d be a7 6a 28 be 5e 72 96 bd 28 56 aa 3d
       -0.21602158 -0.16446935 -0.073460326 0.08317214
000290 73 57 20 be 2a 56 bb bd 2e e7 66 bd 1e be be 3d
       -0.15658359 -0.09147294 -0.056372814 0.09313606
0002a0 d6 ee 5e be 08 b9 db bd 56 cb 34 be c2 9a 9f bb
       -0.21770796 -0.10728651 -0.17655692 -0.0048707435
0002b0 14 43 18 be 89 e3 63 be 74 b5 1d be 2a 75 11 be
       -0.14869338 -0.22254767 -0.1540125 -0.14204851
0002c0 c4 12 c4 3c d9 1a 00 3e d9 32 ca 3d a3 95 24 3d
       0.02393473 0.12510242 0.0987298 0.040181767
0002d0 eb 48 bb 39 82 43 fc bc b5 29 8c bd 31 5b a2 bb
       0.00035721748 -0.030793909 -0.068438925 -0.0049547185
0002e0 6a 54 63 bb f7 e4 49 3d f5 df 05 3d e8 13 1d bd
       -0.0034687766 0.049290624 0.032684285 -0.038349062
0002f0 bf 1c 63 3d 52 26 2f bc 2a 8a a9 bd 0b 90 06 bd
       0.055447336 -0.010690289 -0.08278306 -0.032852214
000300 c9 a8 65 bd 1b 63 4e bd 5c 7d 7f 3d c9 d5 89 bd
       -0.05606917 -0.050387483 0.06237541 -0.067302294
000310 78 2c 25 bd 28 f3 79 bd a7 6d f7 bc 6e 12 4b bd
       -0.04032561 -0.061022907 -0.030203653 -0.049578123
000320 62 b6 15 3e 76 59 84 bc 85 ee e9 3b 73 af 68 bd
       0.14620355 -0.01615594 0.0071390294 -0.056807946
000330 e6 ac 02 3e ce cb ed 3c e2 34 76 3d ff be ae bd
       0.12761268 0.029027846 0.060109027 -0.08532523
000340 5b 86 2f 3e 79 0a 97 bb 19 9d f1 3c 72 ff 98 3d
       0.17141096 -0.0046094027 0.029493855 0.07470597
000350 49 dd aa 3d b8 47 8c bd 36 45 73 bd ad 23 15 3d
       0.08342988 -0.06849617 -0.059392177 0.036410976
000360 21 81 84 3c 78 29 67 bd 6d 8e 44 bd 74 03 56 bc
       0.016174855 -0.056436032 -0.04798739 -0.013062347
000370 4b 71 d0 b9 d1 63 8a bb 08 7a 0d 3d c8 06 7a 3b
       -0.0003975726 -0.004223325 0.034540206 0.0038151015
000380 e0 59 67 3d 75 a0 7f 3d b2 f5 88 3d f5 be 0a 3d
       0.056482196 0.062408883 0.06687488 0.033873517
000390 84 67 1c 3e 74 94 ff 3c fe be 89 3d 82 8c fa 3d
       0.15273863 0.031198718 0.06725882 0.12233831
0003a0 f6 dd e9 3d 9c 05 97 3c c1 b2 64 3b 22 3c 65 3d
       0.11419289 0.018435292 0.0034896585 0.05596555
0003b0 02 a6 2a 3e b4 86 14 3e 7a 29 66 3d a1 c9 a4 3d
       0.1666489 0.1450451 0.0561919 0.0804627
0003c0 23 9d ef bd f4 58 11 bd 74 b9 dc bd c5 31 fd bd
       -0.11699893 -0.035485223 -0.1077756 -0.123630084
0003d0 00 6e a9 bd 12 44 b2 bd 3d 91 a0 bd 09 1f 3b bd
       -0.08272934 -0.0870439 -0.07840202 -0.045683894
0003e0 cb b2 9f bb 7e c7 f3 bd 82 4a 10 bd ea 1b 3c be
       -0.0048736087 -0.119032845 -0.035227306 -0.18370023
0003f0 6c cf 4f 3c 7b eb bd bd 72 34 21 bd 1a ad e6 bd
       0.012683731 -0.0927343 -0.039356656 -0.11263485

conv4.bias f4 [20]
000000 35 de 14 3d 1f b8 64 bd 95 9d ce 3d 67 f0 06 bc
       0.036344726 -0.055839654 0.1008865 -0.008236027
000010 9b c1 f0 3d 4a 30 86 bd 78 39 02 bd 9e 67 03 bd
       0.11755677 -0.06552179 -0.031793088 -0.03208124
000020 5c f0 01 3e 3a 9f 9e bd 97 28 e2 bd d4 31 05 be
       0.12689346 -0.07745214 -0.11042898 -0.13007289
000030 1c 62 8d bd 08 48 2c 3e 1a 8f 30 bb 18 fe 87 3c
       -0.069034785 0.16824353 -0.0026940764 0.016600654
000040 f8 9f 71 3c cd b3 3d bc 40 6f d5 bd b6 46 a6 bc
       0.014747612 -0.011578512 -0.1042161 -0.02029739

fc1.weight f4 [256, 500]
000000 7f 31 63 bc 20 70 d9 3d 14 7a 0e 3e ac 1a 95 3d
       -0.013866781 0.10617089 0.13913757 0.07280478
000010 72 7c 69 bd c8 28 1d bb 2b 62 cd 3d b1 77 5e 3e
       -0.057003446 -0.0023980606 0.1002849 0.21725346
000020 83 a7 0a 3e c6 8f 78 bc 39 70 b4 bd 2f 6e 5f 3d
       0.13540463 -0.015170997 -0.08810467 0.05454844
000030 ca 93 a3 3d d8 df e7 3b 71 cd 92 bd 28 3e c6 bd
       0.07987173 0.007076245 -0.07168091 -0.09679824
000040 1d 0d 40 bd 69 84 39 3d a0 80 a4 3d b1 59 f0 bd
       -0.046887506 0.04529229 0.08032346 -0.11735857
000050 f3 57 6e be 6f 47 a7 bd 36 57 31 bc e6 76 93 3d
       -0.23275737 -0.08167922 -0.010824015 0.072004125
000060 1a 9b de 3b 7a 71 1e bd c9 b7 f5 bc 86 b8 3f 3c
       0.006793392 -0.03868244 -0.029994862 0.011701709
000070 e7 84 6a bb 08 72 51 3c ea e3 e6 3c 9a 0b a1 bc
       -0.0035784782 0.012783535 0.02818485 -0.019658852
000080 0a d9 11 bc fd 49 24 3d 79 ad 09 bd 5e 31 7f bc
       -0.008901844 0.040109623 -0.033612702 -0.015575735
000090 1f 25 ec 3c 35 23 90 3c ec 91 89 bb df d0 ec 3c
       0.028826294 0.017594913 -0.0041983034 0.028908191
0000a0 40 e6 7c ba c3 70 18 3d f0 11 20 bc de 48 2d bd
       -0.0009647347 0.037216913 -0.009769902 -0.04230582
0000b0 be 20 f4 3c db 7b 0d bd 14 7a 1e 3c 97 85 b9 3c
       0.029800769 -0.034541946 0.00967266 0.022646708
0000c0 06 fb 85 3b 7c c4 34 3c 8a 37 ed bd 96 53 0c bd
       0.004088762 0.011033174 -0.11582859 -0.0342594
0000d0 ce 14 81 3e 46 fd d1 3c 21 76 6a 3c 11 ca 65 be
       0.25211185 0.025633465 0.014310391 -0.22440363
0000e0 79 60 8a bd d2 f2 63 bd c8 cc 9e 3d 5b dc c7 bc
       -0.06756682 -0.055651493 0.07753903 -0.024397066
0000f0 70 3f bf ba 39 52 57 bb 47 59 ce 3d 36 81 41 3e
       -0.0014591049 -0.0032855405 0.10075622 0.18896946
000100 d5 5f 44 3d 58 c2 e6 3c e2 a3 9b 3c 01 c9 b8 bc
       0.047942955 0.028168842 0.018999044 -0.022556784
000110 bb 83 52 bd 96 21 1b 3d df 11 89 bd 0c ff 80 bd
       -0.05139516 0.037873827 -0.06692862 -0.06298646
000120 73 00 99 bd 91 51 9e bc 6b cd 87 bb 09 88 69 be
       -0.07470789 -0.019326003 -0.004144361 -0.228058
000130 14 08 05 be cb 59 0b 3d 74 f6 66 be fa 05 8c bd
       -0.12991363 0.03402118 -0.22554952 -0.068370774
000140 69 ec ad bd 6a 3e 86 3c 80 28 68 3d f8 06 09 be
       -0.08492357 0.016387183 0.05667925 -0.13381565
000150 87 30 b3 bd c8 a4 83 3b ad 08 97 ba dc 91 4b 3d
       -0.0874949 0.004017446 -0.0011522971 0.04969965
000160 6d ce b3 3d 75 b8 ce bc b4 77 af bc aa e2 89 bd
       0.08779607 -0.02523444 -0.021419384 -0.06732686
000170 bc c9 f9 3d ed 3f 0e 3e de 8f 50 bd ff 78 43 3e
       0.12196681 0.13891573 -0.050918452 0.19089125
000180 50 40 01 3e 8c 6a 92 3d 91 63 17 3d 6d 7a 02 be
       0.1262219 0.071492285 0.03696019 -0.12742014
000190 03 a8 fd bc a7 8e 45 3e da a4 03 3e ae bd ed 3b
       -0.030963903 0.19292699 0.12855855 0.0072552776
0001a0 7c a9 24 be 4f 09 f7 3c 27 0e e3 3d b3 9e 28 3e
       -0.16080278 0.030155806 0.11086684 0.16466789
0001b0 a6 d5 84 3b db 9e dd bd b3 bd f9 bb 11 0b a1 3d
       0.004053789 -0.10821315 -0.007621491 0.07863439
0001c0 da 7b 83 3d 70 2b 58 3d 07 be 9b bd 5f 1d 1e bd
       0.06420107 0.0527758 -0.07604604 -0.03860223
0001d0 9e 63 ef bc 96 fe 52 3d ed 2d 4e 3d 71 05 2c bd
       -0.029222306 0.051512323 0.050336767 -0.041997377
0001e0 36 ab b7 bd 78 e3 04 bd cf 7d 8d 3d be 86 00 3d
       -0.08968203 -0.032443494 0.06908762 0.0313785
0001f0 c5 87 35 bc a6 72 4c bd 09 2d 75 3d e1 3b c4 3c
       -0.011079733 -0.049914025 0.059857402 0.023954334
000200 a8 d5 9d 3d 1d 28 e4 bc 86 8a 5a 3c 10 7d b6 bd
       0.07706767 -0.027851159 0.013338691 -0.089105725
000210 af a9 ab bc 38 33 24 bd 40 aa f8 3a 0f 6f 5b bd
       -0.020954935 -0.04008791 0.0018971637 -0.05357271
000220 dd 48 ae 3d 28 fd e3 bd 2b 6f fa 3d 96 22 81 3e
       0.08509991 -0.1113227 0.12228235 0.252217
000230 2c f9 ef bd 15 22 07 3e 86 d1 a1 3d 7f aa 8a 3d
       -0.11717448 0.13196595 0.079012915 0.06770801
000240 df ae 2b 3e 63 32 30 be 01 11 09 be 80 3a cb 3d
       0.16765927 -0.17206721 -0.13385393 0.09923267
000250 f0 67 37 3d 66 c2 e6 3d 48 13 98 3c 7a 44 18 3b
       0.044776857 0.11267547 0.018563882 0.0023234175
000260 e8 a1 32 3d 5f 79 b3 3b 91 91 ef bc 70 5b 74 bc
       0.043611437 0.005477115 -0.029244216 -0.0149143785
000270 16 da 3d 3d 9b f8 31 3d 6a df 09 bd 45 0d 19 bd
       0.04635056 0.04344998 -0.03366033 -0.03736617
000280 0d c0 b7 bc af 61 b2 3c 71 74 11 3d 75 05 c3 bc
       -0.022430444 0.021775095 0.035511438 -0.023806313
000290 66 03 eb 3c 91 43 1b bd 7b 90 f1 bc d2 bd 4f 3d
       0.028688144 -0.037906233 -0.029487839 0.050718136
0002a0 1f 85 c9 b9 a7 17 09 3d af a7 97 3c c9 14 4d 3c
       -0.0003843689 0.033469822 0.018512575 0.012517163
0002b0 dd 16 83 bd 8f f0 45 bd e9 b7 38 bd a7 39 99 bd
       -0.06400845 -0.048325118 -0.045097265 -0.074816994
0002c0 fd 9c af bd b8 e1 c0 bd 55 87 57 bd 75 c6 fa bd
       -0.08574865 -0.094180524 -0.052619297 -0.12244884
0002d0 8e 3c db bd 5f 53 96 bd 5c 19 1e bd be ce a2 bd
       -0.10704909 -0.073401205 -0.038598403 -0.07949589
0002e0 92 3a 92 bd 56 9f 16 be 75 76 46 be 8e e6 ed bd
       -0.07140078 -0.1470922 -0.19381125 -0.116162404
0002f0 04 c1 28 be 39 4b ae bd 63 85 25 be 6d aa d8 bd
       -0.1647988 -0.08510441 -0.16164164 -0.10579381
000300 19 60 84 bc c5 34 60 bd d5 1d 97 3c 12 c9 95 be
       -0.016159104 -0.054737825 0.018446842 -0.29254967
000310 68 4d 9f bc f4 43 b3 bd 5d cf 89 3c c9 69 ed bc
       -0.01944609 -0.087531954 0.016822511 -0.028981106
000320 95 f8 90 3c fe b4 8b 3d a0 12 2f 3e 46 72 86 3e
       0.017696658 0.06821631 0.17096949 0.2625906
000330 30 4f f5 bd 30 59 63 3d 80 55 24 3d aa 78 94 3c
       -0.119779944 0.055504978 0.0401206 0.018123943
000340 88 1e 20 3e d5 d9 e8 bd 89 d7 11 be de 7a 21 bc
       0.15636647 -0.11369673 -0.14242376 -0.009855954
000350 ca 89 1a 3d 0e 04 8e 3d e2 d3 ff bc 9f 7e 12 be
       0.037729062 0.06934367 -0.031228963 -0.14306115
000360 07 9b 93 3b 9d a7 5b 3c 8a 38 0f bd d2 2c 3a be
       0.0045045647 0.013406661 -0.03496603 -0.1818116
000370 c3 d3 99 3d 4b 95 a5 3d 61 64 c2 bb e8 17 af 3c
       0.075110935 0.08085116 -0.0059323763 0.021373704
000380 1c 91 60 bd 48 17 ca bc 19 c0 14 3d a1 9c 18 3d
       -0.054825887 -0.024669304 0.03631601 0.037258748
000390 3f bf 2e 3d cd d4 bd bc 3f d9 32 3d 91 44 28 3d
       0.042662855 -0.02317276 0.043664213 0.041081015
0003a0 90 19 4f 3b c0 08 1d 3b 5e 7e ab 3c 74 2c 25 bd
       0.003160093 0.0023961514 0.02093428 -0.040325597
0003b0 a0 71 1a 3c 37 11 1b 3d 80 b0 03 3c 4e 9a 9d 3c
       0.009426504 0.037858214 0.008037686 0.019238617
0003c0 9b e2 22 3d 7a 2a 9b 3c 61 3b 2f 3d fc bc 61 bc
       0.03976689 0.018941153 0.042781238 -0.013777968
0003d0 57 ff 0a 3d 04 96 5c 3c 90 8a d0 bb 98 b5 11 bd
       0.033934917 0.013463501 -0.006364174 -0.035573572
0003e0 78 88 ff 3b 94 93 31 bd f0 33 15 be aa 6c b8 3c
       0.0077982508 -0.043353632 -0.14570594 0.022512753
0003f0 f4 b7 fa 3a 98 02 8c 3d 15 02 b5 bd 0f 5a 20 bd
       0.0019128309 0.06836432 -0.08838288 -0.039148387

fc1.bias f4 [256]
000000 11 29 29 be 87 00 49 3e 1f cc d9 bc 1d 94 91 3c
       -0.16519572 0.19629107 -0.02658659 0.017770821
000010 c2 0a 7d bc e3 6f af 3c dc c5 80 3c 4a 49 43 3c
       -0.015444459 0.021415656 0.015719347 0.011919329
000020 35 92 39 3e 99 d7 4c 3c 5b 5b 72 bd 59 06 aa bc
       0.1812218 0.012502574 -0.059169155 -0.02075498
000030 8b 15 86 be 36 ba 00 3e e2 32 5c bd 5a c4 16 be
       -0.2618831 0.12571034 -0.053759463 -0.1472334
000040 31 0a 55 bd e0 ab 52 bd 8d e1 90 bd b2 56 e3 3d
       -0.052011672 -0.051433444 -0.070742704 0.1110052
000050 e5 ea 4a 3e 27 5c 41 3e fc 8a 09 be 75 52 3f 3d
       0.19816168 0.1888281 -0.13431925 0.046709497
000060 0e 99 22 3e 0a bf 26 3e f1 9c 06 3e c4 b3 02 be
       0.15878698 0.16283813 0.13145806 -0.12763888
000070 60 61 5b 3c 35 60 4e be 5b 4a 2d bd 4d bb 3f bd
       0.013389915 -0.20153888 -0.04230724 -0.046809483
000080 34 d6 d1 bc 5f a2 2b 3e fb 0d 43 bc d4 31 0b 3e
       -0.025614835 0.16761158 -0.011905189 0.13593227
000090 ea 84 a1 bb 0a 13 3d bd 9a ed 29 be 00 16 a3 bd
       -0.0049291747 -0.046160735 -0.16594544 -0.079631805
0000a0 72 51 22 3e e4 ec 94 3c 8a fb 39 bd da cc dc bd
       0.15851381 0.018179365 -0.045405902 -0.1078126
0000b0 b0 44 7c 3d f1 02 be bd 74 d7 23 3e 33 42 00 bd
       0.061588943 -0.09277905 0.16000158 -0.031313132
0000c0 ef aa 0e 3d 6c 35 3e be 55 f9 ca 3d 1a 2d 9c 3d
       0.034830984 -0.18575066 0.099108376 0.0762579
0000d0 dd b9 99 bc 83 25 c3 bc 04 00 8e bc 25 e4 b3 3c
       -0.018765384 -0.023821598 -0.017333992 0.021959374
0000e0 84 10 0e be 3e 0c 39 3d c3 6b 8c 3d cc 23 b5 bb
       -0.13873488 0.04517769 0.068564914 -0.005527949
0000f0 61 d2 a3 bc 17 9d f5 3c 97 0d 83 3d 72 00 4e bd
       -0.019997777 0.029982133 0.063990764 -0.050293393
000100 af bf f0 bd e2 c1 c8 bc 9f b7 21 be cb 2b 2e bc
       -0.11755311 -0.024506513 -0.15792702 -0.010630558
000110 59 f5 00 be b9 6f ea 3c 10 ac ae bd 55 59 be bd
       -0.12593593 0.028617727 -0.08528912 -0.092943825
000120 d9 2c 6b 3d e7 d6 1f be 0f 05 2c bc aa ba 2e bc
       0.057415817 -0.15609322 -0.010499253 -0.010664621
000130 0f 8e 9b 3c a5 49 ba 3d f5 bb 83 bd 5b bf 07 bd
       0.018988637 0.09096078 -0.06432334 -0.033141475
000140 94 a6 7f bc 9e fd a2 3d 2f a8 7e bd dd fc c7 bc
       -0.01560368 0.0795853 -0.06217211 -0.024412567
000150 c7 9c 0a 3e 7e 8c 4e bd 5b 01 d6 bd 37 cd cb bd
       0.13536368 -0.050426953 -0.10449477 -0.09951251
000160 a7 cd 34 be 42 0d 27 3e 03 81 80 bd 1f 94 9c be
       -0.17656575 0.16313651 -0.06274607 -0.30581757
000170 e3 fb d6 3b 60 fa 21 bb 12 20 4a bc 6b bf 4f bd
       0.006560789 -0.0024715886 -0.012336748 -0.05071966
000180 75 41 8a bd 38 d5 46 3e 29 8a b0 bb 5a d4 ff 3c
       -0.06750766 0.19417274 -0.0053875637 0.031229187
000190 52 61 8b 3c 89 81 ed bc 5f a5 0c be 4f 26 78 3c
       0.01701418 -0.028992431 -0.13734959 0.015145852
0001a0 2f 9d aa bb 55 2c 7b 3d 0e e1 c5 3c 49 56 06 bc
       -0.005206726 0.061321575 0.024155166 -0.008199283
0001b0 58 57 3f be 00 ca 4f bd c4 88 ae 3d 2d 37 cd 3d
       -0.18685663 -0.05072975 0.0852218 0.100202896
0001c0 2d 4b 2d be a1 6f 83 bd 9d f6 7d bd 2d 68 3d 3e
       -0.16923209 -0.06417776 -0.062002767 0.18496771
0001d0 34 9f 0a be f1 85 f0 bd a0 1d bc 3b 25 ac 0d 3c
       -0.13537294 -0.11744297 0.0057408363 0.0086469995
0001e0 b5 7b 4f be 31 83 fe bd 84 be bf 3d 85 34 9c bd
       -0.20262034 -0.124273665 0.0936251 -0.07627205
0001f0 80 54 a6 3c 72 82 f0 3c 8a cb 4a 3d ff b2 e4 3d
       0.020303965 0.029359076 0.049510516 0.11166953
000200 59 29 b2 bc 33 11 4b 3e 97 3a a2 bd 25 39 8a bd
       -0.021748232 0.1983078 -0.079213314 -0.06749181
000210 99 2e ac bc 21 1b 63 bd e5 da f2 bc aa 72 39 3e
       -0.021018313 -0.055445794 -0.029645393 0.18110147
000220 5d 71 a7 3c 93 9f 35 bc b9 78 78 bd a2 6f cc bd
       0.020439798 -0.011085409 -0.060662005 -0.0998223
000230 ab 44 7c be 4e 84 0b 3e bc 9f 8a bc 1f a9 02 bb
       -0.2463557 0.13624689 -0.01692187 -0.001993723
000240 8d 3f bf 3c cd 70 2e bd 2e f5 3e bd f7 36 88 bc
       0.023345733 -0.042588044 -0.04662054 -0.016627772
000250 5b 6e 71 bc 50 36 5f bb 86 19 66 bd 2e 0e 51 3e
       -0.014735783 -0.0034059472 -0.056176685 0.20415565
000260 4e 9f 03 bd cb 10 1b 3c 1d 1d ae bd 28 ea 59 bd
       -0.032134347 0.009464453 -0.08501647 -0.053201824
000270 96 83 25 bd c0 b2 58 3b f2 59 dd bc 38 fd f1 bc
       -0.040408693 0.0033065528 -0.027020428 -0.02953969
000280 be d7 9a bc 6a 4a eb bd 49 12 c7 3c a2 72 07 be
       -0.018901702 -0.11488803 0.024300711 -0.13227323
000290 4e 4a a7 3d e1 05 b9 ba 17 70 a7 3d 05 51 35 3d
       0.08168469 -0.0014116132 0.08175676 0.04426672
0002a0 1c a8 d5 3b 92 3a ba bc 43 b5 1c bd da 35 67 3d
       0.0065202843 -0.022733007 -0.038258802 0.05644784
0002b0 73 8c 4d bd a8 77 8f bc 99 2b fd 3d b3 e6 6b bc
       -0.05018277 -0.017513111 0.12361831 -0.014398265
0002c0 d1 ea 76 bd 98 b8 5a bd d9 97 75 be b5 4b 53 3d
       -0.060282532 -0.0533987 -0.23983707 0.05158587
0002d0 ab f2 44 3e af ae c3 3c 22 3e ab 3c 95 bb 20 bd
       0.19233195 0.023887007 0.02090365 -0.039241392
0002e0 18 e7 eb bc 76 fe 42 3e 75 70 80 3c 21 28 a2 3c
       -0.028796718 0.19042382 0.015678624 0.019794526
0002f0 f3 3a c1 bd 18 bd cc 3d e9 d4 36 be 17 68 8a be
       -0.09435072 0.09997004 -0.17854656 -0.2703254
000300 21 70 c4 3d af 99 4f 3e 9f 7c 88 3d 27 1a 2d bd
       0.095916994 0.2027347 0.066643946 -0.04226127
000310 e5 66 91 bd d9 ee 81 bd da 71 51 3e 2c 48 01 bd
       -0.07099704 -0.06344385 0.20453587 -0.03156297
000320 f8 61 65 3e ae 9c c1 3c 03 02 bf bd 1e fa 4d 3e
       0.22400653 0.023634281 -0.093265556 0.20114943
000330 cd 25 af 3c 9d cd 9d bd 88 93 25 3c cb e9 ec bc
       0.02138033 -0.07705233 0.010105975 -0.028920075
000340 7e 9f 01 3e 9b 0b b2 3d d4 8a 77 bc 5b 4a fb 3b
       0.12658498 0.0869362 -0.015108783 0.007668776
000350 69 81 ee bc 5b 9b be 3d 91 a6 8f bd 4a e0 f7 3c
       -0.029114442 0.093069755 -0.07014192 0.030258317
000360 54 48 91 3d c2 13 77 bd 73 f4 02 bd f8 7c 28 3e
       0.070938736 -0.060321577 -0.031971406 0.16453922
000370 20 80 51 be 0b 50 18 bc c2 24 ac 3c 46 76 44 be
       -0.20459032 -0.0092964275 0.021013621 -0.19185743
000380 1f d9 1e bd b0 e9 00 3d 46 46 91 3d d9 52 20 3e
       -0.03878128 0.03147286 0.07093482 0.15656604
000390 2b f4 fe bd 79 82 cd 3d 76 3a 36 3e 75 53 d8 ba
       -0.12448915 0.10034651 0.17795739 -0.0016504364
0003a0 7b e5 63 3e 20 80 1f be 7e 76 62 3e 0d 54 a9 bd
       0.22255509 -0.1557622 0.22115514 -0.082679845
0003b0 0d 43 4b be 05 56 40 bd 3e c7 f4 bd 3e 80 48 3d
       -0.19849797 -0.046957035 -0.11952065 0.048950426
0003c0 1c 2d 17 3e df 24 80 bb f5 58 15 be 8e 65 9d 3c
       0.14763302 -0.0039106454 -0.14584716 0.019213464
0003d0 ec b0 7c be 8b dc 84 3e e8 6b b0 3d ba 17 f2 3b
       -0.24676865 0.2594951 0.086143315 0.0073880823
0003e0 4c b3 0e 3d 8c 7d ae 3b f1 d0 d3 bd 86 e9 cc bc
       0.03483896 0.005325025 -0.10342587 -0.025013696
0003f0 9a 25 7b 3d 9d be e9 bc fc 26 f6 bc 77 c3 d8 3d
       0.061315157 -0.028533274 -0.030047886 0.10584157
