HW4/simpleCNN_L2/animals_simpleCNN.pth (torch, 734903 bytes, 18 tensors)

conv1.weight f4 [6, 3, 5, 5]
00000000: 81fc ca3d 3d3d 283d 5539 2d3d 50fa 6fbc
00000010: d3f2 0bbd 068a e1bd cfa8 c9bd 0220 9e3e
00000020: 1af9 d93d 6968 79bc 7aa1 8d3d 53b7 04bd
00000030: 6d32 3c3c ddb3 c93c 9f94 e5bd 3083 023e
00000040: 3374 9f3c bbf0 6bbe d0fd cbbd 27fb 27bd
00000050: a5e9 073e 6b6d 333e d749 08bd 070f 90bd
00000060: 01eb 3e3d a1cd 40bd 5a8b 833d 09e5 e83d
00000070: 1c02 813e a104 3d3d 0b83 59be 4f26 8dbd
00000080: e3aa d03e 87f5 4f3e 03e4 043e 35e9 27be
00000090: 5a8b 40be e83e f0bd b5e6 bbbd ad74 0ebe
000000a0: 3e7d 3a3d ee26 18be bdd5 6abe 6fbb 21be
000000b0: b54a 02be b131 a2bd 6ab9 55be 7468 36be
000000c0: 9240 3dbe f0f3 b0bd e8bd 22be 7e01 643d
000000d0: 6355 943e b3d5 4b3e caa9 283e 1bf4 bfbd
000000e0: 2d46 99bd 608a 053f e83f da3e d22a 413e
000000f0: 7b36 acbd d8b9 703d 35f2 cb3d 7f7d 853d
00000100: 4878 2d3c c260 6b3d d814 08be 20b4 bbbd
00000110: e665 93bd e674 d93c e04d 30bd 2914 a3bd
00000120: 5c08 883c 9a97 e53c 3275 13bd 635c f9bd
00000130: a1da d1bd 931c e4bc 0c85 3abc 57ab 4c3d
00000140: f02d febc 4bb8 c43d d9f2 883c 7a10 10bc
00000150: 2af7 0b3e 1a4a 193e 8a09 883d 0d27 c73d
00000160: f59b 443e 61c8 073e 8732 853d 2992 a13d
00000170: d43d 983d 0454 3a3d b657 213e b8c3 91bd
00000180: 0cd4 873d d65b 4f3d 5934 053e 15d5 6d3b
00000190: e4bd a53c 2d38 a63c 8cb4 bf3d f750 78bd
000001a0: 2044 303e bea0 063c 2ed0 a33d 1842 bfbc
000001b0: fbef 80bc a87e 523d ca03 91bc 37a6 28bd
000001c0: 2979 193d 531d 53bd a730 aa3c 0d5a 73be
000001d0: 2db1 3ebe 0f06 32bd 58ff 16bd 6d3c 18be
000001e0: 4090 7dbe 8040 08be afe5 37be e5a3 2abe
000001f0: 91d4 3cbd 14e4 3cbc 517b 35bc ebaf c8bc
00000200: 1a91 d9bd 5582 483d e675 923d b6c7 b33d
00000210: b308 2d3d be51 003e 53e5 f83d 62e1 483e
00000220: 2e4d 8c3e 96b2 e23d 2ab7 023e 1dce 223e
00000230: 1b7f d9bd deed af3d ced9 87bb 3b6c dd3d
00000240: 2af0 9e3d dbd3 b2bd d701 833d 3bad 423e
00000250: 9b70 8a3c d0d9 db3d 5b67 8dbe 351f 82bd
00000260: d065 9f3c 4398 c0be 2dc0 08bf 87e3 4fbd
00000270: d222 fc3c 1730 67be 099c c0be dd24 5d3e
00000280: 4c60 ca3e 61af d33d 6a18 cd3d 4e8a 30be
00000290: 6dcf 903e 2502 353e 70a6 9a3c 69e2 c43d
000002a0: 8a83 08be 40b2 fabd 2ddf 353e 77a9 963e
000002b0: bc5c 1c3e 3e2d dfbd 003e e8bd 1b8a 35bc
000002c0: 8b43 32bd 7dd1 a53d 9a46 0ebe 436c 9cbd
000002d0: 5fb0 103e 455c bbbc 9474 af3c 9b6c 20be
000002e0: acb7 193f 60f8 633e 188f 3a3c 650a 213d
000002f0: 937a bbbd 89be 153f 3b07 9e3c a2bd dcbd
00000300: 01e0 a53d a15c 9e3b 6cd6 713d 7b7d d8bd
00000310: 95ef 01bc 7c3e 5e3c fe1a 09be da41 d2bc
00000320: 61be 10be 6a43 98bd 301b 7b3e 3541 ed3d
00000330: 6cd3 0fbc 23f2 15bc 37eb a7bd 3642 f33d
00000340: 355a d4bd 10b2 c93e ebab b13d b683 28bd
00000350: b189 b7bc 0140 c33d 47d8 5a3e a234 7fbe
00000360: 6c15 fbbd bba7 b1bd 4ced 0d3d 1756 be3d
00000370: f06a 6ebe 60e4 bdbd d284 0cbe abdf c0bd
00000380: 88a0 3bbe 8e00 b83c c19d 11bd b079 d73d
00000390: dc55 4c3e 1090 bcbe 812b 8dbd 4e15 e1bd
000003a0: 95bb 04be cee6 833d 9129 cbbe 40c4 89bd
000003b0: bcd1 2fbe 3a5d 13be e757 123e 0d1c a7be
000003c0: 37da 8b3d 283e c53d 6947 263d c10a 333e
000003d0: 4d1e d1bd a4ed 5d3c 8fc1 d63d 381f 0c3e
000003e0: c97d 413e c74d 5dbe a395 09bd 631e da3d
000003f0: 6c02 923c bc46 edbc 2c85 e0be fbde 34bc
0.099114425 0.041074026 0.042291004 -0.0146470815 -0.034167122 -0.11012654 -0.09846651 0.30883795
0.106432155 -0.015222647 0.06915565 -0.032401394 0.011486632 0.024621898 -0.11209988 0.12745357
0.019464588 -0.2304105 -0.0996052 -0.041011002 0.13272722 0.17522208 -0.033273544 -0.07034116
0.046610836 -0.047071103 0.064230636 0.1137181 0.25196922 0.046146993 -0.21241395 -0.068920724
0.40755376 0.20308505 0.12977605 -0.16397555 -0.18803158 -0.117307484 -0.09174863 -0.13911696
0.045529597 -0.148586 -0.22933097 -0.15794156 -0.12723811 -0.07919634 -0.20871511 -0.17813283
-0.18481663 -0.086402774 -0.15892756 0.055665486 0.28971395 0.19905739 0.1647102 -0.09372731
-0.07484088 0.5216427 0.42626882 0.18863991 -0.08408829 0.058770984 0.09958307 0.06518077
0.010587759 0.057465322 -0.13289201 -0.091652155 -0.0719717 0.026545 -0.043043017 -0.079628296
0.016605549 0.02802639 -0.036000438 -0.121758245 -0.10246778 -0.027845656 -0.01138426 0.04996809
-0.031027764 0.096054636 0.016717361 -0.008792991 0.13668504 0.14969674 0.066424444 0.09724245
0.19200118 0.13260032 0.06503778 0.07889206 0.07433668 0.04549028 0.15756115 -0.071174085
0.066322416 0.05062469 0.1300825 0.0036290337 0.020232148 0.020290459 0.093606085 -0.06062409
0.17213488 0.008217035 0.079986915 -0.023346946 -0.015739432 0.05139032 -0.017702002 -0.04117414
0.037469063 -0.051541638 0.020775152 -0.2376482 -0.18622275 -0.04346281 -0.03686461 -0.148668
-0.24762058 -0.13305855 -0.17958711 -0.16664083 -0.046101157 -0.011528987 -0.011076764 -0.024497947
-0.10623379 0.04895242 0.071513936 0.08778326 0.042244624 0.12531182 0.12153115 0.19617227
0.27402633 0.11069219 0.12765184 0.15898938 -0.106199466 0.085902914 -0.0041458374 0.10811659
0.077606514 -0.087318145 0.06396835 0.19011395 0.016899398 0.10734904 -0.27617916 -0.063536085
0.019457728 -0.37616166 -0.53418237 -0.050754096 0.030778322 -0.22576939 -0.37619045 0.21596093
0.39526594 0.10336185 0.10014422 -0.17240259 0.28283253 0.176766 0.018878192 0.09613497
-0.13331428 -0.1224103 0.17760916 0.29426166 0.1526975 -0.10897301 -0.113399506 -0.01108029
-0.043521445 0.08096597 -0.1389412 -0.07637837 0.1412978 -0.022871146 0.021417893 -0.1566643
0.60045886 0.22262716 0.011386655 0.039316554 -0.091542386 0.5849386 0.019290557 -0.10778357
0.08099366 0.0048328196 0.05904238 -0.105708085 -0.007930656 0.013564702 -0.13389203 -0.025666166
-0.14135124 -0.07434733 0.2452209 0.11584703 -0.008778434 -0.009151968 -0.081991605 0.11877863
-0.10368768 0.39393663 0.08675369 -0.041141234 -0.022404524 0.09533692 0.21371566 -0.24922422
-0.12259945 -0.0867457 0.034650132 0.09293764 -0.23282981 -0.09272075 -0.13722542 -0.09417661
-0.18322957 0.022461202 -0.035550836 0.10521257 0.19954628 -0.3682866 -0.06893063 -0.10990392
-0.12962182 0.06440507 -0.3968015 -0.06726885 -0.17169851 -0.14391032 0.14291345 -0.3263859
0.068287306 0.09630996 0.040595446 0.17484571 -0.102108575 0.0135454275 0.10486137 0.13683784
0.1889564 -0.21611701 -0.03358997 0.10650327 0.01782342 -0.028964393 -0.43851602 -0.011039491

conv1.bias f4 [6]
00000000: 0f4a 2bbe d9d8 bcbe 7640 46be 27ca 9bbd
00000010: 9b9d 58be 0ee9 8cbe
-0.1672747 -0.36884192 -0.19360527 -0.07606917 -0.21153872 -0.27521557

conv2.weight f4 [12, 6, 5, 5]
00000000: 2da5 8dbe 642e 6bbe a7e8 b8be 12df 3fbe
00000010: 2e9f 68be 3302 bebd df8c 16be 8ed4 1bbe
00000020: f8ea 79bc 26a5 02bc fc99 733e 41ee 933d
00000030: f34a 6cbe 5a6c 573d 519f 0cbe 45ac ed3d
00000040: dc87 0b3d 51a0 5ebd a079 d0bd 8083 bcbe
00000050: f6e7 d1bd e6bd 88be c987 243e ccfb 773d
00000060: ba77 ed3c 4ef3 ffbd 5a90 f0bd e0c8 ecbc
00000070: a321 ccbd 8e6a 84be bf14 86be a3f3 b4bd
00000080: c98c 37be e299 cabd 8bf7 6dbe 0f21 86bd
00000090: 2185 bebd 3bdc 4ebe 3e31 53be 0a91 a3be
000000a0: 644a 8f3c 602a 08ba 8771 aebd a694 87bd
000000b0: f437 ebbe 88a8 96be d845 a8be f346 53be
000000c0: 5e72 bcbe a4f7 cfbe 75a7 2dbe 256f d6be
000000d0: 921a 09be a66a a4bd a2e8 a13c f82d 293d
000000e0: 3529 b1be 2d54 50be 6d04 83be 37e7 dc3d
000000f0: c9de b93d 78f0 6bbe 118c 33be 3e20 22be
00000100: 11d0 0f3d 3dc9 e13d dc7e e63d 8aef c13d
00000110: 1755 29bd 4317 35bb cb7c 5d3e 0e95 c33e
00000120: b2d1 943e 60be b73e 4220 553e f266 1bbe
00000130: 4b64 37be 0582 22be c42e de3c d04d 25be
00000140: c1cd a9bd 2e12 60bd 8111 19be 27ff cd3d
00000150: 9b1e c8bd 2a04 233a cba2 abbe a946 90bd
00000160: d633 a93c d031 26be b089 b9bd 7a7c 9ebd
00000170: 5599 183e 9b20 48be 8b2e 3fbb c3b7 05be
00000180: d303 45be bd8b 3c3e 9a49 48be 06e5 7a3d
00000190: 4588 4e3d cc68 ad3d 68cb 57be feb1 213e
000001a0: 671b d7bd 3f0c 8cbd f4a5 ca3d af52 7dbe
000001b0: 2ee9 193e 3246 a03d 23b5 94bd dad8 48bc
000001c0: 5fb9 3c3e 5df6 7e3d 2797 243d e193 2fbd
000001d0: 8aa3 8fbc 5887 773e e3a3 e93d 70dd 92bc
000001e0: 0ccc 7dbe 70f4 0c3e b31b 063e 32b3 023e
000001f0: 6d48 143e 0786 54be e822 efbd a988 04be
00000200: c02f 3fbd 3dd6 a0be d5d5 dfbd 73bf f83d
00000210: fc77 533d 6eb8 7fbd 73a1 f4bc 89cc 423c
00000220: fada 31be 63ce 9bbc 6ada 323d e0fa 163e
00000230: 74c2 efbe 0a0f 1ebe 3ccc ef3d 2e57 a23d
00000240: 3d28 823d a30a 1bbe 0848 123e 229f 1f3e
00000250: a97d f9bd af93 70bd 2b2b 11be 46b8 10be
00000260: 347d 07be fa48 2cbe 6ab0 14be 1512 1bbe
00000270: 8b8b 1bbe d62c 22be 22bb 2dbe 18c3 27be
00000280: 6923 16be 0220 1cbe 277b 11be 03f1 0bbe
00000290: 4855 07be fda8 27be 6df4 11be 888a 00be
000002a0: 2993 03be ecb2 fdbd e51c 05be 87f9 09be
000002b0: 1f3b fbbd e17f 1bbe 02b5 2ebe ee26 1fbe
000002c0: 8c5b 1abe 00dc 11be 1736 12be 8eba 16be
000002d0: 3915 24be 4f67 24be dad1 11be 17bc febd
000002e0: 3986 00be 0d09 27be 91c2 13be c684 17be
000002f0: 8a23 03be bd1f 07be dafd 25be dcb6 19be
00000300: 7d11 0dbe 9716 0cbe 92b5 12be 7205 34be
00000310: 4e85 16be c2db 05be 2f2b 0fbe 8d8c 0dbe
00000320: d389 cabd f485 06be 386b 08be 4d8a 10be
00000330: 8f7c d5bd ade6 37be 046e 2abe 88d5 27be
00000340: a6dc 1bbe 1041 f9bd e320 17be 4c24 36be
00000350: ff54 23be e8b3 e3bd b922 e8bd 0cc4 3ebe
00000360: c70a 1ebe 030a 40be dd52 1abe 142f bcbd
00000370: f5b6 2abe eed0 15be 3231 19be 34a1 0cbe
00000380: 5825 05be 4163 f5bd ddd7 d1bd 3697 06bd
00000390: 0182 94bd 2bae bdbd 6fb9 edbd 6fd4 d9bd
000003a0: 0dfd aebd a0cb 4fbd 656b 9dbd 9c19 a5bd
000003b0: c571 fbbd f704 9bbd d77e f9bc 109d 8bbd
000003c0: d94e a8bd c6de 59bd 34e4 04bd 4d79 85bd
000003d0: 9c73 92bd a03d abbd ed3b 7ebd ed23 72bd
000003e0: 303b 9cbd 9585 aebd d553 f3bd 8b7c e6bd
000003f0: 5aa4 d0bd b4f5 2abe 35fc 1ebe f7e0 0bbe
-0.27665082 -0.22966915 -0.36115 -0.18737438 -0.22716972 -0.09277763 -0.14702176 -0.15217802
-0.015253775 -0.007973945 0.23789209 0.07223178 -0.23075466 0.052593566 -0.1373265 0.116051234
0.034065112 -0.05435211 -0.10179448 -0.36819077 -0.10249321 -0.2670738 0.16067423 0.060542867
0.028987754 -0.124975786 -0.11746283 -0.028904378 -0.09967353 -0.25862545 -0.26187703 -0.088355325
-0.17924799 -0.09892632 -0.23238961 -0.06549274 -0.09302736 -0.20201199 -0.20624253 -0.31946594
0.017491527 -0.00051943026 -0.08517747 -0.06620149 -0.45941126 -0.29425454 -0.32865787 -0.20632534
-0.36806005 -0.40618622 -0.16958411 -0.41881672 -0.13389042 -0.08028154 0.019764248 0.041303605
-0.3460175 -0.2034461 -0.25589314 0.10786288 0.09075696 -0.2304095 -0.175339 -0.15832612
0.035110537 0.11024711 0.11254665 0.094695166 -0.041340914 -0.0027632273 0.21629636 0.38199657
0.29066235 0.35887432 0.20813087 -0.1517599 -0.17909352 -0.15869911 0.027121909 -0.16142964
-0.082911976 -0.054704838 -0.14948083 0.10058432 -0.097714625 0.0006218577 -0.3352264 -0.07044727
0.0206546 -0.1622994 -0.09059465 -0.07738586 0.14902242 -0.19543688 -0.002917203 -0.13058381
-0.1923974 0.18412681 -0.19559327 0.06125357 0.050422926 0.08467254 -0.21073687 0.15790555
-0.105032735 -0.06838273 0.09894934 -0.24738573 0.15030357 0.07825889 -0.072611116 -0.012258733
0.18430088 0.06224667 0.040183213 -0.042865638 -0.017534036 0.24172723 0.11408212 -0.017927855
-0.24784869 0.1376512 0.13096504 0.1276367 0.14480753 -0.20754252 -0.1167658 -0.12942757
-0.046676397 -0.3141345 -0.10929457 0.12145891 0.051628098 -0.062431745 -0.029862141 0.011889585
-0.17368689 -0.019019311 0.043665327 0.14744139 -0.46828043 -0.15435424 0.117088765 0.079267845
0.06355331 -0.15140776 0.1428529 0.15588048 -0.12182171 -0.058734592 -0.14176624 -0.14132795
-0.13231355 -0.16824713 -0.14520422 -0.15143616 -0.1518995 -0.15837416 -0.16965917 -0.16383016
-0.14661945 -0.15246585 -0.14207135 -0.13666157 -0.13216126 -0.16373058 -0.14253397 -0.12552845
-0.12849106 -0.12387642 -0.12999304 -0.13474093 -0.12267136 -0.151855 -0.17061237 -0.15542194
-0.15073985 -0.1424408 -0.14278446 -0.14719602 -0.16023721 -0.16055034 -0.14240208 -0.12438219
-0.12551202 -0.16312046 -0.1442969 -0.14796743 -0.12806526 -0.13195701 -0.16210118 -0.15011162
-0.13776202 -0.13680492 -0.14327076 -0.17580202 -0.14699289 -0.13072112 -0.13981317 -0.13823147
-0.09889569 -0.13137037 -0.1332215 -0.14115258 -0.10424148 -0.1795909 -0.1664353 -0.1639005
-0.1522089 -0.12170613 -0.14758639 -0.17787284 -0.15950392 -0.11118299 -0.11334748 -0.18629473
-0.15433799 -0.18753819 -0.15070672 -0.09188667 -0.16671355 -0.14630482 -0.14960173 -0.13733369
-0.13002527 -0.11981822 -0.10246251 -0.03285905 -0.07251359 -0.092617355 -0.11607634 -0.106362216
-0.08544359 -0.0507313 -0.076864995 -0.08061525 -0.12277559 -0.07569306 -0.03045599 -0.06817067
-0.08218164 -0.05319097 -0.032444194 -0.06517277 -0.07150957 -0.083613634 -0.06206887 -0.059116293
-0.076284766 -0.085215725 -0.11881224 -0.112542234 -0.101875976 -0.16695291 -0.15525897 -0.13660036

conv2.bias f4 [12]
00000000: f943 0bbe cfe9 a7bc 0071 b4bd 814f cfbd
00000010: 1b0a dfa5 f0d3 f9bd 85f3 15bd 0695 15be
00000020: e874 b1bd 37d1 2bba f6f6 36be 3578 0e3d
-0.13600148 -0.02049723 -0.088106155 -0.10122586 -3.869118e-16 -0.12198627 -0.03660919 -0.14607629
-0.08664876 -0.0006554308 -0.17867646 0.034782607

conv3.weight f4 [16, 12, 4, 4]
00000000: 989b 02be 37c9 84be 3fda d43d 21cb c1bd
00000010: 3881 3ebe c11b 18be c588 8dbe 9185 7a3e
00000020: 8480 bfbe 5b09 dabe d364 18bc e989 a03e
00000030: c4fe 85bd e159 be3e 2753 d43e a3e4 bc3e
00000040: 3b3b dcba 4d5d a0bb 33a8 803c ce2b 493c
00000050: cff2 53bd efb9 9fbc fd0c 0cbb e33f 2ebc
00000060: 0308 07ba d66b d6bb 26ad 8d3b eba9 853c
00000070: 3bcf f5bc 1dd0 dabc 4e03 f5bb bf1c 04bd
00000080: f7e6 24bd a6ae 53bd 2ab0 30bd 0731 34bd
00000090: f5ea 35bd 59b8 32bd 5409 6fbd df6c 3ebd
000000a0: 96d4 3ebd 9880 28bd 41f2 5abd b614 57bd
000000b0: 7e88 34bd 7e7b 31bd 8ab4 55bd 06e1 57bd
000000c0: edfc 29bd 624c da3e ba98 0cbd cd09 bc3e
000000d0: d9fd 4d3d 7f2a a1bc 3d54 583d 067b a1bc
000000e0: 6769 2c3e d7fe 4a3e 000d 12bd ac2d 503e
000000f0: 4e24 1e3d 42fe e03c ac45 19be 8933 d7be
00000100: 1491 b787 9a23 9f07 471f 9f06 ddff 4786
00000110: 7495 dc06 9bfe 2207 4e15 1f88 c85b 3408
00000120: be33 a007 7260 8885 21ba 3788 4bc9 4d87
00000130: cc77 5d88 bba0 1f85 4cd7 db08 1169 f987
00000140: a556 983d 26a6 45bd 7c0a 9a3e 36b5 b33c
00000150: 0cf0 80bd cbdd 003e 80ae b33d edd5 cb3d
00000160: a888 eabd f562 913c 810c 5bbd b21c 1fbc
00000170: 9945 4abe 6f3e cf3b 7992 d7bd d685 26bd
00000180: fdeb ea3d d8da bebd c395 4abc 2103 a6be
00000190: eca4 d2be e578 7fbd 52ba 05be 5078 06bc
000001a0: 24a9 0bbe 7c52 ddbe 1dd5 c1be 1d22 e3bd
000001b0: 0a21 c2bd 82b5 2cbf a8af 00bf eba2 29bd
000001c0: 764c 0ebe 5669 88bb 157b 77bd 8c75 6cbd
000001d0: cfba cfbd de3d 813d 2a7c 823b 47e1 623d
000001e0: b08c 86be 3b91 dbbd 3498 12be 8a41 c43b
000001f0: 2ace 67be 0273 35be fe05 083c df64 0b3e
00000200: 2d02 fbbd 4a5a ddbd a4de 5dbd 6a33 bbbd
00000210: 0273 21bd 3eb5 0a3e 6849 2d3e 77ce 68bd
00000220: a795 2fbe f78a 74bd 0e7e a6bc 68b5 06bd
00000230: a894 f9bd f6bb dbbd 437f f1bd b7c2 3bbe
00000240: 9bef 113e aedf 7ebe 1823 a6bd 9e5d 863d
00000250: 5fc7 d93d b01b afbc 2a9b 26bd b215 143e
00000260: 3335 803d 9329 7e3e 1310 163e 23ca 793d
00000270: 5671 633e cbe2 9d3e e2f4 0fbc 1203 06be
00000280: 6c3b 873d 5618 a43e 8196 703e 5126 473e
00000290: bda4 43be ac5d b1bc 476d 44bd 7f56 893d
000002a0: f306 fd3b c07a 803d 4bc1 173e fe24 243d
000002b0: cab6 9f3d 7e30 c8be 7a4f d53d 6b5b 3c3e
000002c0: 9d4d cfbe aa11 f8bd af36 9d3c 93e5 8f3d
000002d0: 34ae 06bf 67b0 5bbe e115 403d 08bf 80bd
000002e0: 8924 a0bd d16e 64be 9180 15be c431 1bbe
000002f0: b10d bfbe 5fd5 ecbe 7f3a 9dbe 76cf d4be
00000300: 5ad3 ddbd 093d b1bd d847 85be 910a 5dbe
00000310: a5df a93c 9fe7 963d 08a2 c1bc 61cf f7bb
00000320: da78 00bd 62c0 283c 1439 c9bd 4b18 6abe
00000330: 318a 64bd d1f6 99bd 59d7 f0bd d795 c3bd
00000340: 17a7 053e 3979 c93d e37b d03d 91e1 e73d
00000350: 655f c63d 9dee 823d c9d9 b83d 55ed b53d
00000360: 20b8 953d 2df5 733d f47c a83d 2b31 cc3d
00000370: c2d7 743c 8ede d53c 1319 693d a3c8 b13d
00000380: 4ebc 2a3d 0ddb 213d d01e 1e3d d67c 1b3d
00000390: 6e6d 323d d9c3 fc3c 6af8 333d 047b 2b3d
000003a0: be53 2b3d 6a97 253d fde4 233d 4b6d 233d
000003b0: e732 2a3d adf9 1b3d 7805 183d 81dc 233d
000003c0: df60 34bc 5c90 943d 5c5e 9d3e 393b 2e3e
000003d0: f9c3 66be ae66 c5bd d0eb 0b3e 9f4f ef3d
000003e0: f1a1 7fbd 6926 903e c099 0f3e f677 e33d
000003f0: bbe5 b23d 07d2 d9bd 797a 2b3e 3914 82bc
-0.12754667 -0.25934765 0.1039319 -0.09462572 -0.1860398 -0.14854337 -0.2764341 0.24465014
-0.37402737 -0.42585263 -0.009301382 0.31355217 -0.06542733 0.37177947 0.4146969 0.36893186
-0.001680232 -0.004893935 0.015705204 0.01227851 -0.051745232 -0.01949784 -0.0021370046 -0.010635349
-0.0005151035 -0.0065436168 0.0043236194 0.016316375 -0.030006042 -0.026710564 -0.0074772006 -0.032253977
-0.040259328 -0.05168023 -0.043136753 -0.04399207 -0.044413526 -0.04363284 -0.058358505 -0.046490546
-0.046589456 -0.04113826 -0.053453688 -0.052509986 -0.04407548 -0.043330662 -0.05217413 -0.052704833
-0.041500974 0.426364 -0.03432534 0.36726227 0.050290916 -0.019673584 0.05281471 -0.019711982
0.16837083 0.19823776 -0.03565693 0.20329922 0.03860884 0.02746499 -0.14967984 -0.42031506
-2.762005e-34 2.3944586e-34 5.985511e-35 -3.761572e-35 8.2974404e-35 1.2262347e-34 -4.7872366e-34 5.427467e-34
2.4104536e-34 -1.2824807e-35 -5.5288353e-34 -1.548164e-34 -6.664559e-34 -7.5056656e-36 1.3231199e-33 -3.7527108e-34
0.07438401 -0.048254155 0.30086124 0.021936994 -0.06295785 0.12584607 0.087735176 0.099529125
-0.11451846 0.017747382 -0.05347872 -0.009711431 -0.19753112 0.0063245813 -0.10525984 -0.04065498
0.114707924 -0.09319085 -0.012364808 -0.32424262 -0.4114145 -0.062371153 -0.13059357 -0.008207396
-0.13638741 -0.43226993 -0.37857905 -0.11090491 -0.09478958 -0.6746446 -0.5026803 -0.041415136
-0.13896355 -0.0041629476 -0.060420115 -0.05772929 -0.10143053 0.06310628 0.0039820867 0.055390622
-0.2627921 -0.1072106 -0.14315873 0.005989258 -0.22637239 -0.17719653 0.00830221 0.13612698
-0.12256274 -0.10808237 -0.054167405 -0.09140666 -0.03941632 0.13545701 0.16922534 -0.056837525
-0.17146932 -0.05970284 -0.02032378 -0.032887846 -0.12186557 -0.1072921 -0.11791851 -0.18335997
0.14251558 -0.24890015 -0.08112162 0.06560825 0.1063373 -0.021375507 -0.04067532 0.14461401
0.06260147 0.24820547 0.1465457 0.06098379 0.22211203 0.30837092 -0.008786412 -0.13087109
0.06603131 0.32049817 0.23494913 0.1944821 -0.19105811 -0.021651112 -0.047955777 0.06705951
0.0077217757 0.06273413 0.14819829 0.04007434 0.07798536 -0.39099497 0.104155496 0.18394248
-0.40488902 -0.12112744 0.019191114 0.0702621 -0.5260956 -0.21454011 0.046895865 -0.06286436
-0.078194685 -0.22307898 -0.14599825 -0.15155703 -0.37315133 -0.4625654 -0.3070869 -0.4156453
-0.10831328 -0.0865422 -0.26031375 -0.21586062 0.020736525 0.07368397 -0.023636833 -0.0075625633
-0.031365253 0.010299774 -0.0982534 -0.2286083 -0.055795852 -0.075177796 -0.11759824 -0.09550064
0.13052021 0.098375745 0.101798795 0.1132232 0.09686164 0.06393168 0.09025914 0.08883158
0.0731051 0.05955999 0.08226958 0.099703155 0.014944019 0.026107099 0.05690868 0.086808465
0.041683488 0.039515544 0.038603604 0.03796085 0.04356139 0.030855106 0.043938078 0.041865364
0.04182791 0.040427603 0.040013302 0.03989915 0.04155245 0.038079906 0.03711459 0.04000521
-0.011009424 0.07254097 0.30736053 0.17014779 -0.22535695 -0.09638725 0.13664174 0.116851084
-0.0624103 0.28154305 0.14023495 0.11106865 0.08735224 -0.10635763 0.16745938 -0.015878784

conv3.bias f4 [16]
00000000: 25b9 293e b774 a3bd 1566 65bd 9979 8ead
00000010: 1f49 80be 25fe abbd b717 433e b6e7 d0be
00000020: 2adb 05bd 1cfe 0bbd b3bc 33bd d016 2e3d
00000030: 0a19 073d c302 48bb bf95 d0bd a4c1 8abd
0.16574533 -0.07981246 -0.056005556 -1.6197531e-11 -0.25055787 -0.083980836 0.19052015 -0.4080178
-0.032679714 -0.034177884 -0.04388113 0.042502224 0.032982863 -0.0030519224 -0.10184812 -0.06775215

conv4.weight f4 [20, 16, 4, 4]
00000000: fd5d fd98 529f 359c 430b 201b a995 2097
00000010: a717 ab19 58b8 739a 6d4a 0a99 438a ad95
00000020: 3ec6 b595 ec93 e49c 8550 1498 a25c 1e93
00000030: 0321 3019 d20f 1e17 a8a7 ba17 5a1e 2f95
00000040: 0fde 3207 fcdc ec89 5fbd 9b09 045d b188
00000050: 2e33 1588 954c 4488 0422 8b0a 92fe 238a
00000060: 1222 5a88 f306 1307 782a ea89 de38 1489
00000070: bd10 7209 6ace c50a 148c 3f07 a796 eb08
00000080: 2487 9185 afa9 5d86 c82b d787 cece 1707
00000090: 2b09 9c88 7d10 a906 7e42 9f87 2d1f cc07
000000a0: 8790 7d88 83f0 8f87 a8bc 3a07 3fdc 6907
000000b0: 26a8 e287 9995 2988 58e5 0488 5628 5907
000000c0: f077 2487 b26f 2e07 df2d eb06 2b6d 9406
000000d0: df14 9186 1613 9087 5a57 8187 6d76 7d88
000000e0: 4a38 9907 4c6b 7188 0517 1c08 2a77 f787
000000f0: 236f ed86 2406 3307 0d28 bd07 e0f3 e607
00000100: 5667 a207 557a a007 1ee0 1f07 4052 b287
00000110: 37fa 9e87 70e1 4e08 e51a 0487 b7d7 0208
00000120: 8559 6387 a7e0 4c06 97e0 c487 deed 3308
00000130: 0001 3406 1095 9706 5a86 8b87 d108 3987
00000140: 23c9 2bb1 8647 6730 d4f6 4ab1 b3df 8cb0
00000150: d2c7 d2ae 18cb 5731 2e87 f9b1 43e2 1eb1
00000160: b3e5 9eae b95c b9b0 6648 84b1 7688 14b1
00000170: ceda 3eaf 2359 01b0 06bc 25b1 0c8c aeb0
00000180: 77c8 92ac ea17 e02b f389 11ae b2b6 38ac
00000190: 6cbf 9aac 3a40 9eae 32b1 a0ae 78bb 01aa
000001a0: ebc1 1c2c 416f 00ae 145f c42e e816 f3ab
000001b0: bd44 b5ab c419 c6ac 0f55 122c 0671 86ac
000001c0: 9553 c61c 05e2 1aa0 9497 ab9b 60e2 6097
000001d0: 31ff 2e1c 81b8 041d d5f0 47a0 f34e bd97
000001e0: eb73 b898 e4dc 4d9d b5b6 8e1d ce9a 1497
000001f0: e858 9219 2293 e317 02ea 9d1a 6767 e898
00000200: c9b0 e986 011a 8b86 d415 9a87 e2fe 8e07
00000210: 50a8 4f06 90c7 dc85 26fa 3e07 2bc5 c306
00000220: 306a 0b05 ae6f 7506 3f9e c286 80a5 4987
00000230: 13fd 9e06 de33 0587 c3f2 0207 eb17 a187
00000240: f151 5206 ba61 ec06 3a9b 5486 2da0 3204
00000250: 3d92 7a07 7d17 9106 2601 6f87 1cec 0407
00000260: 20f8 0087 a321 8d87 b5b7 2e87 ffe3 4f05
00000270: da17 4587 3dc2 8306 a008 1107 8fe8 9c07
00000280: 6723 778b 327a fc91 9b39 1f15 dc0c 6d98
00000290: 6f58 c20f 14cc 5693 1537 d996 f520 a216
000002a0: 3029 0214 1a87 c217 25f2 7b95 a602 ef97
000002b0: 0187 a593 9e8a a814 b17d fc13 04d7 b494
000002c0: 42fd 1987 ca9d 0707 8707 6187 d104 7387
000002d0: 3e31 4287 8058 4787 2d50 3306 abd4 3306
000002e0: 411f 7607 7ee8 8004 cc0c 2f87 49fc 4885
000002f0: 1864 5f86 eb81 d086 9951 6007 d882 2c85
00000300: bf22 4186 74d5 1c87 8a82 0c06 d78e a606
00000310: 76b3 e106 0819 4486 bcde 7487 3422 9b86
00000320: f0d9 2387 f0f4 3b05 242c 3e86 d534 5887
00000330: f2be 0a86 7808 f685 623c de06 c069 3706
00000340: c5b7 ea1a 3b03 091c 97bf 7e9b 7715 5e96
00000350: 814d 679c 7e5f 241d 6e25 509f bdec e79a
00000360: e1de 3b19 58ea 7e9b 8854 8f1f 3ab7 0496
00000370: 8018 4098 a8c1 919a 85b9 9599 13d9 a516
00000380: 4482 e607 7c44 1887 3c06 1108 78e7 6a88
00000390: 1669 0108 a751 e208 58b8 9608 9366 1a89
000003a0: 2cab 1507 39c6 a108 bcfe 8a88 0960 6088
000003b0: 032f 6088 af86 400a c31b 5d88 6fdf e589
000003c0: 35ce ac8e 05aa 320f 3795 b011 1977 c58a
000003d0: 6c73 708e f1a3 4090 c3f4 b991 f833 9a10
000003e0: 0774 850d 1819 650e e3e0 3691 24bf 8c0e
000003f0: ca9b 030f bbf7 1c8d b624 040e bea4 408b
-6.549387e-24 -6.0093793e-22 1.3238529e-22 -5.1887686e-25 1.7690539e-23 -5.0400134e-23 -7.149463e-24 -7.009228e-26
-7.341809e-26 -1.5126011e-21 -1.9169204e-24 -1.9988075e-27 9.1056534e-24 5.107252e-25 1.2062291e-24 -3.5364912e-26
1.3456489e-34 -5.7022746e-33 3.7492976e-33 -1.0674668e-33 -4.489822e-34 -5.9071626e-34 1.3398008e-32 -7.896044e-33
-6.564204e-34 1.1061093e-34 -5.637339e-33 -1.784159e-33 2.913756e-33 1.9048054e-32 1.4410408e-34 1.4178966e-33
-1.3685377e-35 -4.1690144e-35 -3.2375337e-34 1.1420752e-34 -9.391064e-34 6.359496e-35 -2.3962742e-34 3.0712832e-34
-7.630431e-34 -2.1657609e-34 1.4048526e-34 1.7593696e-34 -3.410353e-34 -5.103244e-34 -3.9991897e-34 1.6337119e-34
-1.2373235e-34 1.3123129e-34 8.8464577e-35 5.583182e-35 -5.4573605e-35 -2.167793e-34 -1.9461103e-34 -7.6273627e-34
2.3053965e-34 -7.2649426e-34 4.69716e-34 -3.7234468e-34 -8.931279e-35 1.3468268e-34 2.84611e-34 3.474989e-34
2.4435786e-34 2.4146025e-34 1.2027693e-34 -2.6830805e-34 -2.392026e-34 6.225587e-34 -9.93848e-35 3.9374024e-34
-1.7103889e-34 3.8533184e-35 -2.9622804e-34 5.4145465e-34 3.3854972e-35 5.7018915e-35 -2.099336e-34 -1.3920444e-34
-2.4998108e-09 8.413895e-10 -2.9535174e-09 -1.024992e-09 -9.5851896e-11 3.1402063e-09 -7.262222e-09 -2.312064e-09
-7.225811e-11 -1.3486875e-09 -3.8499364e-09 -2.1614404e-09 -1.7358134e-10 -4.70566e-10 -2.411754e-09 -1.269997e-09
-4.1718256e-12 1.5922795e-12 -3.3091706e-11 -2.624939e-12 -4.3981953e-12 -7.196417e-11 -7.307434e-11 -1.1522543e-13
2.227658e-12 -2.9202644e-11 8.929937e-11 -1.7272546e-12 -1.2879902e-12 -5.630359e-12 2.0795065e-12 -3.821057e-12
1.3124146e-21 -1.3119091e-19 -2.8387532e-22 -7.266403e-25 5.79016e-22 1.756544e-21 -1.693564e-19 -1.2233768e-24
-4.7679932e-24 -2.7245722e-21 3.7776e-21 -4.801677e-25 1.5131955e-23 1.4706673e-24 6.531174e-23 -6.0075004e-24
-8.790462e-35 -5.23242e-35 -2.3184174e-34 2.1515592e-34 3.905603e-35 -2.0762008e-35 1.4367523e-34 7.364056e-35
6.555252e-36 4.6161428e-35 -7.320721e-35 -1.5170195e-34 5.9804854e-35 -1.002105e-34 9.851454e-35 -2.4238645e-34
3.955681e-35 8.891693e-35 -3.998681e-35 2.0997349e-36 1.8850885e-34 5.457745e-35 -1.7980699e-34 9.999963e-35
-9.702567e-35 -2.1235092e-34 -1.3144292e-34 9.7749695e-36 -1.4827642e-34 4.956213e-35 1.0911122e-34 2.3608957e-34
-4.7597103e-32 -3.9833898e-28 3.2155237e-26 -3.0638024e-24 1.916394e-29 -2.7111216e-27 -3.5093002e-25 2.619331e-25
6.5714455e-27 1.2571061e-24 -5.0880065e-26 -1.5445682e-24 -4.178498e-27 1.701834e-26 6.3737685e-27 -1.8260164e-26
-1.1584866e-34 1.0202641e-34 -1.6929331e-34 -1.8282704e-34 -1.4609409e-34 -1.4997104e-34 3.3725062e-35 3.3822402e-35
1.8516168e-34 3.0306166e-36 -1.3169297e-34 -9.450292e-36 -4.2015176e-35 -7.84318e-35 1.6875866e-34 -8.111433e-36
-3.6324793e-35 -1.1798864e-34 2.6426978e-35 6.2652144e-35 8.489929e-35 -3.6881893e-35 -1.8421976e-34 -5.8354777e-35
-1.2326803e-34 8.837686e-36 -3.5767458e-35 -1.626556e-34 -2.60952e-35 -2.313684e-35 8.3595843e-35 3.4496167e-35
9.707703e-23 4.5333673e-22 -2.1072294e-22 -1.793979e-25 -7.653166e-22 2.1754588e-21 -4.4076674e-20 -9.592183e-23
9.7126834e-24 -2.1086108e-22 6.07027e-20 -1.0720691e-25 -2.4827788e-24 -6.028346e-23 -1.548117e-23 2.679418e-25
3.4683117e-34 -1.1455335e-34 4.364168e-34 -7.0688904e-34 3.8943053e-34 1.3621077e-33 9.071136e-34 -1.8585306e-33
1.1259817e-34 9.736437e-34 -8.365461e-34 -6.7520437e-34 -6.746281e-34 9.269795e-33 -6.65374e-34 -5.533986e-33
-4.2599844e-30 8.808822e-30 2.7859865e-28 -1.901521e-32 -2.9637858e-30 -3.799162e-29 -2.93387e-28 6.082236e-29
8.22469e-31 2.8238511e-30 -1.4426567e-28 3.4696726e-30 6.4888025e-30 -4.8369406e-31 1.6287932e-30 -3.7101793e-32

conv4.bias f4 [20]
00000000: e92e 07bb be97 b0bd 9bd0 0bbd 2ff8 ed3d
00000010: d74f 9abc 6c0a dbbd 8e00 33be 10b0 5cbe
00000020: 5108 26be bfef ae3e 5fd5 b3bd e939 31be
00000030: 9808 64be 8856 803e cf09 913e 097f 743e
00000040: 651e 933e 509d 22b8 81b3 2f3c 8edc 1b3e
-0.0020627326 -0.086226925 -0.03413449 0.11619603 -0.018836899 -0.10695347 -0.1748068 -0.21551538
-0.1621411 0.34167287 -0.08780932 -0.17307247 -0.22268903 0.25066018 0.28327796 0.23876585
0.28734127 -3.877032e-05 0.010723949 0.15220854

fc1.weight f4 [256, 500]
00000000: 436b b706 a3f1 d586 5dfe e007 3633 dc86
00000010: 191a 0387 65ce 0e87 7de0 3987 dbee 2d87
00000020: f9ad 0806 0a0e 4907 7a72 5207 77b1 e507
00000030: f33e 9907 63ba e506 70ca 9587 edbc 3287
00000040: bd3d 9807 15d6 7507 a7a2 3b07 6451 2f87
00000050: 4337 4607 67b3 4c07 e093 a187 16ee 8485
00000060: 745d 3108 9c67 e5ba 83b6 4abc d480 1c3c
00000070: d015 e13b aca4 a1bc 5570 1ebd 0e53 a2bc
00000080: e406 2fbd c8bb 473c d4c4 613c 969e f13b
00000090: de42 2dbd fef4 443c 9a7e 0cbc f973 7e3c
000000a0: 8fcc 10bd f32d 29bd e630 2ebd 7fe3 bfbb
000000b0: 513d 2bbc 1339 923a b0c9 96bc c26c 14bd
000000c0: c7a3 afbb 75b2 1dbb 54ac 26ba b3f3 ddbc
000000d0: 257d 2bbb cfae 4fbc 38e7 a3bc 2762 433b
000000e0: d374 c3bb 11fb c6ba 77c1 67bc 5abd 883a
000000f0: 452d 8a3b 014c 5cbc 1b6f f6bc 375e 233c
00000100: c871 d5bc 22be 39bc 1e6d efbb 6d9d 1d3b
00000110: 6507 debc 750a 2939 c002 cfbc 834c 02bc
00000120: be8e e5b9 91c7 d2bc 0d24 f33b d058 7fbc
00000130: 7e58 09bb 028f bfbc 8026 95bb 57fe f739
00000140: 8421 a1ba be3b 503b 0e24 e4bb 728e 8a3b
00000150: 90e3 7bbc 9ce6 d43b e69e cfbb ae59 ccbc
00000160: 29d1 c8bb be7b a0b9 d92f b4bc 7175 bebc
00000170: 32e8 1f3b 7b60 81bc a20e 953b 8a83 a8bc
00000180: e192 bfbc cf1b 30bc 94ab bf3a 3477 88bc
00000190: cec6 abbb 6385 223b 3ccb f23a 0462 0fbd
000001a0: b2d6 453c f3b8 783b 7e45 643c 1c6e f6bc
000001b0: 2f0b 77bb 71b9 9bbc 3579 c33c 4352 41bc
000001c0: a1bb 18bd 5074 a739 7ee4 1d3c f326 16bd
000001d0: b4a5 f43b 92bf 0ebd 049f 31b9 b6e1 813c
000001e0: f8da f0bb 3d06 bdbc f9f0 d9bb a79b f5bc
000001f0: 5f80 bb3c f1d5 5e3c 54aa 3f3c d325 933a
00000200: 71ec e8bc 210f 9dbc 96c1 f739 9803 e43b
00000210: af9b babc d526 8ebb 6bed 4ebc 99e6 46bc
00000220: fec7 0c3c a74b e0bb a5b6 0ebc 53a4 00bd
00000230: 911e 72bc 86e1 13bc 4c98 6539 d00b 653c
00000240: 29a2 0abd 8f1d ef3b f35f 96bb e1d8 a2bb
00000250: c90b 013c 4ed3 aeb9 164d 61bc 69d3 04bc
00000260: 4738 a2bc d622 71bc 4746 eebc 605a 91bc
00000270: 811e 08bd 4be2 07bc 06b5 a73c af5a 8e3c
00000280: 6da9 773b 6d27 44bc 82e7 01bb 02bc e0bb
00000290: 6ac3 18bb 73a7 efbc 2726 613c 9c08 a2bc
000002a0: 71da a1bc 10b5 463b a611 a9ba 3926 a6bb
000002b0: f35d 623c 79ff 0f3c 4446 6b3c 9377 e5b5
000002c0: 8ef3 b635 eb39 f3b6 3e3a 17b7 f0cf 25b6
000002d0: bebd 6bb6 fc24 9eb6 56f2 ba35 d712 acb4
000002e0: 4fdd 9bb6 37c0 c6b5 5617 3436 a484 b7b5
000002f0: 85ba 82b7 1aa0 a0b7 3f4b deb5 e57a 24b7
00000300: 4571 0cb7 8bf6 8b36 1a44 98b7 8788 5e32
00000310: 48ce d4b5 2993 76b5 c69a 15b7 955a dbb6
00000320: fd95 8bbc f4ad 813b 5c9f 06bc a1f0 43bc
00000330: bb21 60bc 6c13 1c3b 19f6 2fbc 4b54 23bc
00000340: a4f8 7fbc b395 9dbb d2c9 a33b b09b 133c
00000350: d78e 0fbc 4cb2 c0bc 9d27 a83b 7b1e e8ba
00000360: e25c 173b 52fa 37bc 57e9 fa3b 6e4a e5bb
00000370: 6983 f53b 0ddb 41bc e55c 9bbb dec8 96bb
00000380: b703 a3bc 8706 a8bc 3929 ecbc 1312 0abc
00000390: 04ab 01bb 3a20 e4bc 067a 993a 972a a5bb
000003a0: e298 83bb 56e8 003c 47d0 233c 29c3 84bb
000003b0: 8d3b 45bc 0758 e0bc fea6 de3b 4f63 39bc
000003c0: 8ab9 f2bc 2cb4 f83b 4f83 37bc 9976 143c
000003d0: 5b64 513b a14b 023c cbe8 debc b4f8 e23a
000003e0: 4f14 bbbb 4db3 a4bc 48fe 1c87 f6cd b806
000003f0: ec1c a386 3186 2806 fb3d 1e84 5fc5 0007
6.8994556e-35 -8.047675e-35 3.3853275e-34 -8.283005e-35 -9.863014e-35 -1.0743547e-34 -1.3983824e-34 -1.3085267e-34
2.5706572e-35 1.5125685e-34 1.5832286e-34 3.4560395e-34 2.305788e-34 8.6414097e-35 -2.253801e-34 -1.3446752e-34
2.2906705e-34 1.8494664e-34 1.4116116e-34 -1.3189455e-34 1.4912104e-34 1.5399976e-34 -2.43115e-34 -1.250068e-35
5.3373854e-34 -0.0017502191 -0.012372616 0.009552199 0.0068690553 -0.019731842 -0.038681347 -0.019814994
-0.04273118 0.012190767 0.013779838 0.0073736412 -0.042300098 0.012021301 -0.008575106 0.01553058
-0.035351332 -0.041303586 -0.042527102 -0.005855977 -0.010451631 0.0011155925 -0.018406719 -0.036236532
-0.0053601 -0.0024062668 -0.00063580764 -0.027093744 -0.0026167121 -0.012675955 -0.020007715 0.0029813142
-0.0059648543 -0.0015181025 -0.014145247 0.0010432408 0.0042168223 -0.013445855 -0.030082276 0.009971193
-0.026055232 -0.011336835 -0.007306709 0.0024050132 -0.027103135 0.00016120991 -0.025269866 -0.007952812
-0.00043784635 -0.025729926 0.007420069 -0.015585139 -0.0020957286 -0.023383621 -0.0045517087 0.0004730101
-0.0012293314 0.003177389 -0.006962306 0.0042284066 -0.015374079 0.0064972173 -0.006336081 -0.024945106
-0.0061284495 -0.00030609773 -0.021995472 -0.02324936 0.0024399874 -0.015793076 0.0045488635 -0.020570535
-0.023385467 -0.010748818 0.0014623278 -0.016658403 -0.005242205 0.0024798743 0.0018523703 -0.035005584
0.012075113 0.0037952035 0.013932584 -0.030081801 -0.0037695875 -0.019009324 0.023861507 -0.011799398
-0.037288312 0.00031939382 0.009636996 -0.03665824 0.0074660424 -0.034850664 -0.00016939273 0.015854698
-0.007350322 -0.023074264 -0.0066510406 -0.029981447 0.02288836 0.013600812 0.011698324 0.0011226482
-0.028433057 -0.019172253 0.00047255744 0.006958436 -0.022779314 -0.004338125 -0.012629847 -0.01213994
0.008592604 -0.006844956 -0.008710538 -0.03140671 -0.014777795 -0.009025937 0.00021895877 0.013979867
-0.033846054 0.007297225 -0.0045890748 -0.0049697016 0.007876345 -0.000333453 -0.013751289 -0.008107045
-0.019802226 -0.014717778 -0.029086245 -0.01774329 -0.033232216 -0.008293699 0.02047206 0.017377226
0.0037790195 -0.01197229 -0.0019821827 -0.00685835 -0.0023309835 -0.02925465 0.013742006 -0.019779496
-0.019757481 0.0030320324 -0.0012898936 -0.0050704745 0.013816345 0.008788937 0.014360014 -1.709663e-06
1.363094e-06 -7.248707e-06 -9.013862e-06 -2.4707952e-06 -3.5128173e-06 -4.7130725e-06 1.3928609e-06 -3.2051204e-07
-4.6451237e-06 -1.4808091e-06 2.6835673e-06 -1.3673166e-06 -1.5584063e-05 -1.914804e-05 -1.6562188e-06 -9.803775e-06
-8.371023e-06 4.171224e-06 -1.8151524e-05 1.29531434e-08 -1.5855267e-06 -9.185629e-07 -8.917128e-06 -6.5372537e-06
-0.017039293 0.0039575044 -0.008216705 -0.011959226 -0.013679917 0.0023815287 -0.010739827 -0.0099688275
-0.015623245 -0.0048091053 0.004998424 0.009009287 -0.008762083 -0.023522519 0.0051316754 -0.0017709279
0.0023096134 -0.011229115 0.007657211 -0.006997398 0.007492472 -0.011832011 -0.0047412985 -0.004601582
-0.019899232 -0.020510925 -0.02882825 -0.008427161 -0.001978577 -0.027847398 0.001170934 -0.0050404775
-0.004016028 0.007867893 0.009998388 -0.004051585 -0.012038124 -0.027385725 0.0067948094 -0.011315181
-0.029629488 0.0075898375 -0.01120074 0.009061479 0.0031950686 0.007952602 -0.027210614 0.0017316551
-0.005709208 -0.020105029 -1.1810862e-34 6.951574e-35 -6.135628e-35 3.1695876e-35 -1.860127e-36 9.687652e-35

fc1.bias f4 [256]
00000000: bb9c 9e3b e903 af3c b98e bda4 4c1f 56bd
00000010: 4dbc 4bbd 6348 aa3c ae28 643b ff9d 8aa9
00000020: f9e8 933e e477 5bbd 03df 9cba f605 43ad
00000030: f4b6 a03d 128f 833c 36f2 e83d b513 24bb
00000040: 9c2b 673d 4817 993d 972f adb1 be59 13ba
00000050: 20c8 0bbe 0f5a 11b6 6bc2 8dbd e5e9 21b2
00000060: 77a9 c4bb c3f1 ebb9 a0b6 9bbd 0c6f b9bc
00000070: ed85 11b8 1d87 50ba 5455 61ba e4e2 b1ba
00000080: d46d 0ab7 6437 51bf 4b77 f2bd 4430 20b3
00000090: b7f6 a4bd ddd1 9ebd 6d3d 99b6 36fd b03c
000000a0: a88d 863d abc8 bfb8 ffd4 fcbb 3d56 79b9
000000b0: 40e4 c4ba caf6 4dbe c2c1 51bd ab27 c63d
000000c0: dfb2 eead ac3d 62bd c41f b13e 7d55 6bb6
000000d0: 6b38 1ebe 9833 0bb9 6ba5 2c3d 5f3e 56b6
000000e0: a73b 8abb 2202 40bc 4aed 1fbe edfc 4fbe
000000f0: 2f9b b7bd 703a 46b2 c753 733d e145 81bd
00000100: 32d0 56bd 29f4 f3b9 5b1c c3bd 4e52 1bb4
00000110: 6f30 43be c371 2f3d 9cc9 3b3b a4d8 f1bd
00000120: 42b4 d4b7 51d1 353e f44d 6c3e c3c9 a83e
00000130: 123a 68b7 3fac f0bd 1b25 f6bd 2f15 e5bc
00000140: 08a9 e9ba 03d2 64b0 2fdd 75b5 278d 3abe
00000150: 780f 40b3 6295 c1bd 81ac dbb6 052e 83be
00000160: 4da0 c9ab c777 aab3 f30e 54b7 f85b c1bd
00000170: 8095 00b2 9f91 003e 842e 86bd d568 d2b8
00000180: 9554 a8b8 a790 c5bc afdc 44ba f1e3 433d
00000190: 971b 36be 6fec 67ba bfea b5bd de7a 703b
000001a0: 697d 54bb 2e23 44be a09a 13b7 084a 0ca8
000001b0: 6e9a 683e 4bf0 343e f57a 953d be5e 67bb
000001c0: 11a8 35bd 7c4c 41b7 4c42 50b7 dd55 18b6
000001d0: 007c e3ba c4e0 7e3e 8416 a3b7 3df6 c6bd
000001e0: 094b 11b6 d313 fab8 5b6d 5bbd 9023 b5be
000001f0: 6d6d 38b7 ebc5 30b1 c955 41ad e508 b93d
00000200: 512e 35bc d2d6 11be d4e4 483b 017b 17bd
00000210: c773 8cba a143 5fbd 0222 82b7 acc6 b1b3
00000220: 112a 9b3d bf00 83ba 16a8 3fba d355 4dbd
00000230: 92e4 413d dbc1 8ab9 1799 bbbb fe8a 20b5
00000240: e3a6 1ebd f165 4d22 ec46 9abd 3c0c 723b
00000250: cbd3 ffbb 4ff6 47b6 af6f e3bd 5c19 61ac
00000260: 91cb 12b0 ff91 f6bd 0af7 8ead ae6c 84b4
00000270: f096 bf3e 698a 2b3e febb 12be d4f8 abbd
00000280: 73f5 dcbd 38db 663b 786d a8ba cce8 c13d
00000290: ad7f b4ba f8cc 9eb9 093b 213b e613 0cbb
000002a0: 3a60 e3bc 1774 d83d 6909 cebd d65e 88b2
000002b0: 534a fab2 72bb 7b3d b994 443e e1a8 083e
000002c0: b888 e83c f990 66bd a34c dcad efec 97bb
000002d0: 5dd5 0cbd 3575 823e 05a4 9e3d 7c5f 4abc
000002e0: 1aaa d53a dc24 8dbd ab8d 58bd 6c8d cabd
000002f0: 0e1a 543e afd3 203e dc49 d0ad 9d7c 6abd
00000300: 9232 cd3e 1826 9eae 3166 62bd 34ba d0b8
00000310: 0f38 d33e 2d98 15be a648 bf3c be13 96a3
00000320: a4ad 77b5 9275 783e 64f8 18b9 3874 a4ba
00000330: 76a2 99bc 0184 0cbd cf70 3db6 3d7c 8cb4
00000340: c1a9 87b9 a7b0 e238 c15a 64b8 c91d 5cb2
00000350: b411 9dba 909d 09bc 2c9d d63d aa95 853d
00000360: cf9e 4da9 e598 6ab8 9b43 63b3 934c 5a3c
00000370: 4d11 dbbd 0a29 14be fec6 01b7 dd60 163e
00000380: 7c6d f6ac c4ab c3b7 4667 8c3e 11f3 d4ba
00000390: 3481 433e aa10 beba c242 02bd 9375 f53e
000003a0: 864f 5dbe 57d1 1eac 50e0 0db7 82e3 1e3d
000003b0: fcc9 dfba 526d 6ebe 78ed ffb4 e9c4 50ba
000003c0: 2809 9b3a efaa 65bd d1f8 a1b8 d5d3 0cbb
000003d0: bd00 e2ba 18ce 30b4 874b 023e 727d d4b9
000003e0: f9ac ae3c 82e0 863b f7b9 87bd de6f 823c
000003f0: 5c1d 23bd 4ac5 b6b9 c527 34bb 6de7 a0b5
0.004840461 0.02136417 -8.2207466e-17 -0.05227594 -0.049740124 0.02078647 0.0034814286 -6.155839e-14
0.28888682 -0.053581133 -0.0011968318 -1.108579e-11 0.078473955 0.016059432 0.11374323 -0.002503616
0.056438074 0.07475144 -5.040373e-09 -0.00056209776 -0.1365056 -2.1659105e-06 -0.06921848 -9.424615e-09
-0.006001647 -0.0004500282 -0.07603192 -0.02263596 -3.4695422e-05 -0.0007954704 -0.0008595784 -0.0013571647
-8.251012e-06 -0.81725144 -0.118391596 -3.72968e-08 -0.080548696 -0.07754872 -4.5669062e-06 0.021605115
0.065699875 -9.144967e-05 -0.007715821 -0.00023778617 -0.0015021637 -0.20113674 -0.051210172 0.09675535
-2.7136902e-11 -0.055234596 0.34594548 -3.506749e-06 -0.15451209 -0.00013275293 0.042149942 -3.192479e-06
-0.004218537 -0.0117192585 -0.15617862 -0.20311327 -0.08965146 -1.1538404e-08 0.05940607 -0.063121565
-0.052444644 -0.00046530485 -0.09526893 -1.4465442e-07 -0.19061445 0.0428331 0.0028654104 -0.11808899
-2.5356308e-05 0.17755629 0.23076612 0.32966432 -1.3841798e-05 -0.11751603 -0.12018796 -0.027964203
-0.0017826864 -8.324436e-10 -9.1591477e-07 -0.18217908 -4.4717552e-08 -0.09452321 -6.5467907e-06 -0.25621048
-1.4326401e-12 -7.938029e-08 -1.2639665e-05 -0.0944137 -7.484573e-09 0.1255555 -0.06551841 -0.00010033107
-8.026619e-05 -0.024116827 -0.0007509691 0.047824804 -0.17783962 -0.0008847182 -0.08882665 0.0036694328
-0.0032423383 -0.19154045 -8.797884e-06 -7.787614e-15 0.2271516 0.1766979 0.07298843 -0.0035304273
-0.044349734 -1.1521504e-05 -1.2413202e-05 -2.2699744e-06 -0.001735568 0.24890429 -1.9441599e-05 -0.09714935
-2.165036e-06 -0.000119246215 -0.053571086 -0.35378695 -1.0992732e-05 -2.5723874e-09 -1.0989828e-11 0.090348996
-0.011058406 -0.14242104 0.003065397 -0.03698254 -0.0010715657 -0.054507855 -1.5513044e-05 -8.278343e-08
0.07576383 -0.0009994729 -0.00073111185 -0.050130676 0.047337122 -0.00026465845 -0.005725037 -5.9806905e-07
-0.038733374 2.7836648e-18 -0.075330585 0.0036933562 -0.00780723 -2.9796681e-06 -0.11105286 -3.19885e-12
-5.3403776e-10 -0.12039565 -1.6253238e-11 -2.466599e-07 0.37419844 0.16752018 -0.14329526 -0.083970696
-0.10789003 0.003522588 -0.0012850007 0.094682306 -0.001377096 -0.00030288822 0.0024601838 -0.0021374165
-0.027755845 0.105690174 -0.100603886 -1.587561e-08 -2.913763e-08 0.06145806 0.19197358 0.13345672
0.028385505 -0.0562906 -2.5045138e-11 -0.004636399 -0.034383167 0.25480047 0.07746128 -0.012351867
0.0016301305 -0.06891796 -0.05286948 -0.09890255 0.20713064 0.15705751 -2.3679662e-11 -0.057247747
0.40077645 -7.191775e-11 -0.05527324 -9.952896e-05 0.41253707 -0.14608832 0.023350071 -1.6271394e-17
-9.226735e-07 0.242636 -0.00014588382 -0.0012546843 -0.018754225 -0.034305576 -2.8228858e-06 -2.6167427e-07
-0.00025875683 0.00010809424 -5.4443957e-05 -1.2812458e-08 -0.0011983425 -0.008399382 0.10479197 0.06522687
-4.565689e-14 -5.593234e-05 -5.2914043e-08 0.013323921 -0.10696659 -0.1446878 -7.735331e-06 0.14685388
-7.0038957e-12 -2.3325796e-05 0.2742254 -0.0016246756 0.19092256 -0.0014500816 -0.031801946 0.47941265
-0.21612367 -2.2569357e-12 -8.456482e-06 0.038791187 -0.0017073746 -0.2328389 -4.7670233e-07 -0.0007963912
0.001182829 -0.056071218 -7.723424e-05 -0.0021488566 -0.0017242652 -1.6466254e-07 0.12724124 -0.00040529255
0.021322714 0.004116119 -0.06627267 0.015922483 -0.03982292 -0.00034860737 -0.0027489525 -1.1988283e-06

fc2.weight f4 [128, 256]
00000000: 4d02 cf19 4861 adbc 6fbd 2c8a 6fce 5f07
00000010: 14ff aebb 3c48 3a8d d077 3d31 fe9c db95
00000020: db6e 14bc ce96 f406 1443 488f 5e73 d106
00000030: 322d 0cbc 4474 d48e bd7a c8ad 9307 4687
00000040: bcc2 9ba5 35fb 84bc 2082 2e09 69b6 3112
00000050: 5ff9 7f0a d677 4788 894e 7806 9f67 ce93
00000060: 4f09 bd8a 9438 7088 24fb 5485 c8e6 8806
00000070: bd01 2993 b339 a508 c288 1f07 9a6b a009
00000080: 7230 e085 e1ca 72bc 2506 e537 bef9 7b07
00000090: c82a ca06 8e4e 9107 da00 4c07 2c9a f5b3
000000a0: 9738 6ab2 8dfa 4f19 aea3 c206 2379 f706
000000b0: b7e9 de09 bbc9 f005 1864 558a d293 b3b3
000000c0: 1703 c587 fa09 198b 6e11 65bb c188 7007
000000d0: bed8 89a4 4bce 8b91 9c22 9bbc de9e 0e0c
000000e0: 8a6c 991c 773b 1a98 d3e0 3d87 4a70 07bd
000000f0: 1e90 5689 1116 8a0e b905 d83c 16ac 83bc
00000100: 52a1 b406 69d7 f40b e736 090d d176 e706
00000110: 3a4f 8c1f 9143 84bb fc64 6606 74e9 8806
00000120: 6eed c087 9cb3 59bb c2ed 24b7 6bee 11bc
00000130: 2f5e 9f9e 9d70 d489 564b 5388 17c3 14bd
00000140: de67 5d08 0890 2995 9e8f 3289 6d89 f0ba
00000150: 6aa3 1998 01b3 96bc a919 cd87 d853 c4bc
00000160: 95de 8986 0178 ae06 6f43 ba14 45c0 0407
00000170: 8542 790e 25c1 8a28 5353 3d09 35b3 1705
00000180: 6ae7 eb8c 4f25 9b0f 7b37 6608 15f2 3a98
00000190: f87b 5607 fb60 ed0b c3b9 b606 aa29 540b
000001a0: 5665 fa84 8910 11a2 8b61 8e08 1d9b b108
000001b0: 4ce0 62bc fde6 2e33 e24c 14bc b941 df06
000001c0: 76ae 910e 713c d107 2cf5 dc86 b947 c419
000001d0: 59a5 a586 c9f5 65bb 7996 7788 a40f 84b9
000001e0: 96ea 2a86 4c0e 0787 b3bb 2cbb 4652 4ebc
000001f0: 8b25 9c07 9e60 0e07 baa9 0b87 4154 b19f
00000200: 92f1 9b07 078b 3588 2157 9d8f 4ac0 c806
00000210: 85f6 6686 e6f4 3a8e 2a52 f986 6225 1b09
00000220: 164d a1bb aa01 b887 d59e d108 2476 ec86
00000230: a1ec 83bc 81a3 ba0b d81f ce88 62ca 878b
00000240: 3732 5887 b08c c285 d1d9 0287 7170 fdbc
00000250: 20a9 8507 5160 700e dbad 168b bbc3 0f86
00000260: e082 f386 ca8a 8abd e988 2a0f 09e5 3e87
00000270: bfd0 70ab aa12 fcba 0e83 e695 60ec f208
00000280: c849 5cb6 1fc6 520a 1288 022c 632d 13bc
00000290: 56a3 8f08 a128 da0b ba7e f787 87df 358b
000002a0: 0eb6 0c88 9a45 b69f 9d87 1789 1462 f185
000002b0: 5eb0 1886 d750 a6b5 c91c 28a5 f3cf 0136
000002c0: 54b9 8da5 97b2 1788 2cca 4086 bd77 b906
000002d0: f627 048c d24c 0ea7 9007 41bc de35 9dba
000002e0: 1bd1 1508 2f63 4287 1494 000c 11e8 ab06
000002f0: bab7 bd36 1cbd 44bc 7b55 2e87 ee77 e6bb
00000300: 9007 87bc 4c31 a088 1977 eb86 2892 25a8
00000310: 9104 16ba b102 d5b2 f814 ecac 145a 4287
00000320: d41f 760b 0071 ccbc 6d66 2d06 21dc b30d
00000330: 1c8d 2a8a c1dd 7f07 c3f9 d488 f7b8 cb86
00000340: 5c04 5d88 9557 2193 8302 a708 c27c 9c04
00000350: c7e2 a387 186d 6d07 7882 b125 8cd2 92bc
00000360: ac92 6586 3e63 8792 c9c1 0407 394d e9b3
00000370: a722 1287 c31a af39 5e1a 2287 19e9 d5bc
00000380: 9d65 2708 76f8 4407 507c a6bb bb69 020b
00000390: c6b7 773b b4fa 2c07 935a 9d89 b228 0b31
000003a0: fabb 3084 097e 2107 8e7e 838e 561e 8dbb
000003b0: 86e6 0b8d 7b56 b3bc d4d0 9087 c741 1787
000003c0: 3a99 1709 40cf 2aaa 6d13 b106 1486 c085
000003d0: 3546 4f06 23dd 4d07 54e2 a5b3 6505 170b
000003e0: 7a30 deb1 cd57 020b 9b84 0d07 a2cd a1a6
000003f0: ff1e ba16 46d3 198d 0212 2407 1b61 db89
2.1404228e-23 -0.021164551 -8.317127e-33 1.6837321e-34 -0.0053404663 -5.7402624e-31 2.7571225e-09 -8.8701086e-26
-0.009059633 9.2004186e-35 -9.87368e-30 7.878658e-35 -0.008555697 -5.2373995e-30 -2.2791874e-11 -1.489809e-34
-2.702017e-16 -0.016233066 2.1005673e-33 5.607619e-28 1.2324705e-32 -6.002525e-34 4.6701314e-35 -5.210389e-27
-1.820354e-32 -7.228888e-34 -1.0014319e-35 5.1496617e-35 -2.1331656e-27 9.944141e-34 1.200202e-34 3.8619787e-33
-2.1082655e-35 -0.014818878 2.7301789e-05 1.8956534e-34 7.6046816e-35 2.1863345e-34 1.5347504e-34 -1.1436745e-07
-1.363346e-08 1.07522475e-23 7.3215195e-35 9.308907e-35 5.366434e-33 2.2643596e-35 -1.02744025e-32 -8.3622254e-08
-2.9643082e-34 -2.9474234e-32 -0.0034953016 1.8095782e-34 -5.9781455e-17 -2.205747e-28 -0.018937401 1.098709e-31
1.0152747e-21 -1.9934056e-24 -1.428485e-34 -0.03306607 -2.5827077e-33 3.4040876e-30 0.026369916 -0.016073268
6.7945514e-35 9.4309494e-32 4.228247e-31 8.706713e-35 5.9423376e-20 -0.004036375 4.3332384e-35 5.150054e-35
-2.9028498e-34 -0.0033218628 -9.830519e-06 -0.008906941 -1.6873733e-20 -5.1143045e-33 -6.358406e-34 -0.036318865
6.6626864e-34 -3.42429e-26 -2.14935e-33 -0.0018351503 -1.985729e-24 -0.018395903 -3.0860053e-34 -0.023965761
-5.186073e-35 6.5627855e-35 1.8807798e-26 9.987079e-35 3.0723648e-30 1.540484e-14 2.2789226e-33 7.132901e-36
-3.634676e-31 1.5298551e-29 6.9278324e-34 -2.4162157e-24 1.6136002e-34 9.1435e-32 6.8733743e-35 4.086106e-32
-5.886778e-36 -1.9659918e-18 8.569246e-34 1.0689267e-33 -0.013847422 4.0722615e-08 -0.009051533 8.397985e-35
3.591326e-30 3.148235e-34 -8.311505e-35 2.0294894e-23 -6.230906e-35 -0.0035089126 -7.450574e-34 -0.00025188655
-3.2145793e-35 -1.0160473e-34 -0.0026356995 -0.012592858 2.3494337e-34 1.0711286e-34 -1.0507076e-34 -7.51018e-20
2.346379e-34 -5.463113e-34 -1.5514956e-29 7.551418e-35 -4.3439306e-35 -2.3044184e-30 -9.378412e-35 1.8675024e-33
-0.0049225194 -2.768622e-34 1.2616071e-33 -8.8946925e-35 -0.016104044 7.189061e-32 -1.240566e-33 -5.230462e-32
-1.6264791e-34 -1.8295353e-35 -9.844123e-35 -0.030937405 2.0111019e-34 2.9628659e-30 -2.9019743e-32 -2.703911e-35
-9.1598744e-35 -0.06764753 8.408015e-30 -1.4361319e-34 -8.555482e-13 -0.0019231637 -9.310303e-26 1.4620417e-33
-3.28255e-06 1.0148395e-32 1.8549645e-12 -0.008982989 8.6448995e-34 8.403168e-32 -3.7238913e-34 -3.5027495e-32
-4.234372e-34 -7.7195144e-20 -1.8239729e-33 -2.269956e-35 -2.8717597e-35 -1.2391491e-06 -1.458143e-16 1.934354e-06
-2.4585184e-16 -4.564984e-34 -3.625972e-35 6.9765205e-35 -1.0180935e-31 -1.9748103e-15 -0.011781588 -0.0011994203
4.508386e-34 -1.4624085e-34 9.905322e-32 6.466404e-35 5.6540275e-06 -0.012007978 -1.3115426e-34 -0.0070333397
-0.016483098 -9.641239e-34 -8.8572173e-35 -9.1910325e-15 -0.00057227263 -2.4797687e-08 -6.7098514e-12 -1.462141e-34
4.740182e-32 -0.024956226 3.2612934e-35 1.1084721e-30 -8.211742e-33 1.9249235e-34 -1.2818005e-33 -7.6631894e-35
-6.6509893e-34 -2.0364238e-27 1.0051537e-33 3.6789996e-36 -2.4658802e-34 1.7861958e-34 3.0793015e-16 -0.017922662
-4.317787e-35 -8.544163e-28 9.987525e-35 -1.0863955e-07 -1.0994003e-34 0.0003339854 -1.2195274e-34 -0.026112126
5.037418e-34 1.4818417e-34 -0.005080737 2.5116632e-32 0.0037798746 1.3013517e-34 -3.788155e-33 2.0250295e-09
-2.0775015e-36 1.2149332e-34 -3.241586e-30 -0.004306595 -4.3110164e-31 -0.021891823 -2.178945e-34 -1.1379308e-34
1.824801e-33 -1.5170937e-13 6.6608544e-35 -1.8104846e-35 3.8983953e-35 1.5487472e-34 -7.72458e-08 2.90856e-32
-6.4665615e-09 2.5103143e-32 1.064663e-34 -1.1227356e-15 3.0069482e-25 -4.7401076e-31 1.2343281e-34 -5.281365e-33

fc2.bias f4 [128]
00000000: 7d1b 983b 3c52 373e 09b8 1a3e 43aa cb3d
00000010: 381f 53b5 fd42 d6bd daef 11ae 0e87 13bd
00000020: ca2e 2e3e 8691 3d3c 0001 6fbd 4b29 0bbe
00000030: 45fa c6bc 2e99 89be 76e9 b5be 2943 17be
00000040: e059 86bc 7037 cfbd 2dca a2b8 5268 103e
00000050: 0d10 8abe 08bd 243e 8cd1 cb3e df6a 98ba
00000060: e637 843e 7ae0 903e 95e6 e1ba 268f e8bc
00000070: 84f8 31be 662e 6d3e 0ed3 2dbe aaa5 0bba
00000080: 9479 15be 2810 c5bd f846 96bc 0b62 7a3e
00000090: 5486 c1be 3a39 a9bb eb22 3bb8 9db8 80b4
000000a0: c40b 0ebe e0ca dcbd 6ec7 f3bd 2a60 3ab8
000000b0: cdf1 7e3e 8f85 9bba 57d2 79bd 1a08 2cbd
000000c0: d0e6 56bd 23c4 a8bd afc2 13be 0210 943d
000000d0: 1386 113b d4d3 9fba 4099 acbc b19c 35bc
000000e0: aebd 36bd 98b2 84bd b77a d6bd 00fc 443c
000000f0: 23a5 39bd a23e aeba 6d2a e0b7 c357 a03e
00000100: 4e3a 0f3d 3a54 04ba 874d d63d 404d 91bc
00000110: 5004 293e 98d2 edba 987d 32bc adc6 cb3d
00000120: cb44 6b3e 631a a7bc e820 2dbd 7bf5 61be
00000130: da40 abbd de2f 95b8 b365 55b9 92b8 993e
00000140: e7dc 553d 14cc 6cbd 48fe c63c 5b3a 2bbd
00000150: eef2 963e 0060 a4bd c22a 42bc 550b 97bd
00000160: 853e cbbc bb51 35be 7644 cebd a1da 5b3e
00000170: c977 dfbe 1f3a 2abc fd87 f8bb 9a54 d2b6
00000180: d2a8 afbc 2feb 5d3d e55f 06be fd86 85b5
00000190: 5b09 debd e25b dfbc ba14 9d3e d1f0 dd3e
000001a0: 6d85 bf3e d989 e3bd 6637 c3bd 4afe 183e
000001b0: f5b6 9d3c 9200 203e c39f 64be 3d86 34bd
000001c0: 6ed7 0cbf 2464 67ba efcf bfbb 8d7b 80bd
000001d0: 6689 2ebe 956c 19bd 4107 22b9 3d64 80bd
000001e0: bc47 89bd 7255 b4be 9125 57bd 4bcd 483e
000001f0: 02f4 22be 4217 8dbd 919f 733e ddb2 3c3e
0.0046419487 0.17902464 0.15109266 0.09944584 -7.8649055e-07 -0.10461996 -3.3182214e-11 -0.03601747
0.17010036 0.01157034 -0.058350563 -0.13589971 -0.02428926 -0.2687468 -0.3552968 -0.14771713
-0.016400278 -0.10117996 -7.76242e-05 0.14102295 -0.2696537 0.16087735 0.3980831 -0.001162853
0.25823897 0.28296262 -0.0017234856 -0.028388571 -0.17379957 0.23162231 -0.16975042 -0.0005327115
-0.1459716 -0.09622222 -0.018344387 0.24451463 -0.37797797 -0.0051642926 -4.4616794e-05 -2.3976182e-07
-0.13871676 -0.10780883 -0.119032726 -4.4435415e-05 0.24896927 -0.0011865365 -0.06099161 -0.041999914
-0.052466214 -0.08240535 -0.14429735 0.07229616 0.0022205159 -0.0012193867 -0.021069169 -0.011084721
-0.044614486 -0.064793766 -0.10472625 0.012022972 -0.045323502 -0.0013293813 -2.6722637e-05 0.31316957
0.034967713 -0.0005047951 0.10464006 -0.017737031 0.16505551 -0.0018144427 -0.010894202 0.09950004
0.22975461 -0.020398324 -0.04226771 -0.220663 -0.08361979 -7.1137896e-05 -0.00020351149 0.30023628
0.052212622 -0.05781181 0.024291173 -0.0418037 0.29482216 -0.08026123 -0.011851015 -0.07375208
-0.024810085 -0.17706959 -0.10071652 0.21470119 -0.43646076 -0.010389834 -0.0075845704 -6.2683366e-06
-0.021442804 0.054179367 -0.13122518 -9.948559e-07 -0.10841628 -0.027265493 0.30679876 0.4334779
0.37406483 -0.11110277 -0.09532051 0.14940754 0.01925228 0.15625218 -0.2232657 -0.044073332
-0.5501622 -0.0008826873 -0.005853645 -0.062735654 -0.17044601 -0.037457068 -0.00015452226 -0.06269119
-0.06703135 -0.3522144 -0.05252606 0.19609563 -0.15913394 -0.06889202 0.23791339 0.18427606
